results/best_model.pth (torch, 302946 bytes, 10 tensors)

network.0.weight f4 [64, 3]
00000000: 5b54 bb3d 352c b3bd 0c79 a6be 03ff 1c3e
00000010: ccfa bf3e 97ca f0be 1aa1 333e 6282 c13c
00000020: 5cc8 d8be 4ee4 ea3e 50e7 56bd 707c e2be
00000030: c746 e03e dfbb fc3e 70b0 4dbe 831a 3b3e
00000040: a747 c53e 29bc 093f a0dd 88be 0fa5 7cbe
00000050: 132f 8ebe 243a 0a3f 8a3c 3ebe cf30 ab3e
00000060: 818e ebbc 161c a8bd c80c b9bd 5d75 dfbe
00000070: 8c06 b63e 5660 c1be 46a0 c53d 1be9 e9be
00000080: ee3b b8bd 6829 b23e abda c83c 2a99 6a3e
00000090: addf 173f 1e6a a63e 923a 1cbe 6d11 ebbe
000000a0: dc62 d33d d094 4cbd 830b 8a3e cc04 ff3e
000000b0: 2551 00bf 4f9f c33e 0fc3 9abe fa74 45bc
000000c0: e039 8f3e 54f4 193e 9d34 b63e 7d01 a3be
000000d0: 0199 053e 8ac6 c83e 46cc 483e 4662 e2bd
000000e0: 1b93 6ebe 5016 cfbe 9257 01bf cca4 063f
000000f0: 59d3 31be d321 02bf 7b54 dfbd 04b9 e93e
00000100: d828 bb3e be76 0c3f a53c ca3e e539 bcbe
00000110: 9e5b a2be 62eb 06bf 391b debe a4e0 c5be
00000120: 7ed0 e03e 58eb a5be 760d 03bd 7b7e 37be
00000130: a614 bfbd 7b2a 6ebe e7fd b3be 89ee 27be
00000140: a745 96be 5f9d a3be 9b9c 473e b22d 413e
00000150: 3730 b1be e2c2 ad3e 8c27 d6be 4629 c6be
00000160: c66a ddbe 21ad cf3e 5335 073f 262d ed3e
00000170: db87 7b3e 396c c93e 94ba 3fbe c8a6 f1be
00000180: fb41 6abd 8590 8b3e f9b6 56be 9103 53be
00000190: 5fa6 90be a71a 2d3e 3582 93bd 2486 e0be
000001a0: b1fa 0fbe 7318 eb3e 3105 c1be 381a c1be
000001b0: 7cd1 95bd 2bc8 fbbe 6d80 b13e 6dee d63e
000001c0: be77 e03e 91d8 b2be 7c73 16bc aa7c 9d3e
000001d0: 1842 88be 32c0 cebe 2702 6cbe 17fb 04bf
000001e0: ed89 96be 5c6c b53c 4c77 203f 01fd ba3e
000001f0: f0f7 8fbe d472 d3be 0654 173f eac0 d13e
00000200: d8b3 d1be 4606 873e f8e8 14bd d8c9 ad3c
00000210: c835 02bf 308e 1abf a360 1e3f c344 6abe
00000220: f06a 8cbe 67dc b2be 9dbb 23be d87e d53e
00000230: 2cca c73d 41f7 e73d c4a7 29be 4f21 9bbe
00000240: dd1d 863c fdd5 543d 7b80 0f3f f631 a23e
00000250: 332f 17bf 2f21 1a3f e2b5 153e dac7 0a3f
00000260: 8ebe 0fbe 4e55 393c 5b60 62be 51eb 11bf
00000270: bb2b ddbd c4ad d73e c2d0 273e 4fba 623e
00000280: 7218 06bf 44d4 8dbe c177 6cbc cdd4 c3be
00000290: 3945 9e3e afc0 a83e fb60 4d3e 5520 e3bd
000002a0: 8ee6 823e 345b 17be 1b25 f13d b53e d43c
000002b0: 5e71 7abe 029c c1be 5e76 99be 5ed7 2e3c
000002c0: 4f53 093f 3864 bbbe 50ef bc3e 3264 303e
000002d0: 8e94 ec3e 72ef e1be 9785 a2bd d699 1dbc
000002e0: a219 5dbd bc3b 723e 1c94 403a 2671 aabd
000002f0: c356 6b3e 3d63 563e f2b5 51bd 6d49 403e
0.09146949 -0.08748666 -0.32514226 0.15331654 0.3749603 -0.47029564 0.17541924 0.023621742
-0.42340362 0.45877308 -0.05246669 -0.44235563 0.43804 0.49362084 -0.20086837 0.18271832
0.3853123 0.53802735 -0.26731586 -0.2467234 -0.2777029 0.53994966 -0.18577781 0.33435676
-0.028754475 -0.08208482 -0.09035641 -0.4364423 0.3555187 -0.3776881 0.0964971 -0.45685658
-0.08995806 0.34797215 0.024518332 0.2290999 0.5932568 0.32502836 -0.15256718 -0.45911732
0.1032159 -0.049946606 0.26961908 0.49808347 -0.50123817 0.3820748 -0.30226943 -0.012051815
0.27973843 0.1503461 0.35587016 -0.31837073 0.13046648 0.39213973 0.19609174 -0.110539004
-0.23298304 -0.4044671 -0.50524247 0.5259521 -0.17365779 -0.5083286 -0.10904785 0.45648968
0.365546 0.54868686 0.39499393 -0.3676292 -0.31710523 -0.52702916 -0.43380144 -0.3864795
0.43909067 -0.32406116 -0.03199526 -0.17919342 -0.0933011 -0.23258393 -0.3515465 -0.16399588
-0.29350016 -0.31956002 0.19493334 0.18865088 -0.34607098 0.33937746 -0.41827047 -0.38703364
-0.43245524 0.40561774 0.5281574 0.46323508 0.24563543 0.3934038 -0.18723518 -0.47197556
-0.05719183 0.27258697 -0.20968236 -0.20606829 -0.2825193 0.16904698 -0.072025694 -0.4385234
-0.14060475 0.4591709 -0.37699273 -0.37715316 -0.073153466 -0.49176154 0.34668294 0.4197878
0.43841356 -0.34930852 -0.009182807 0.30759174 -0.26612926 -0.40381008 -0.23047696 -0.5194563
-0.29402104 0.022146396 0.6268203 0.36521152 -0.2811885 -0.41298544 0.59112585 0.40967494
-0.40957522 0.26371974 -0.03635499 0.02121441 -0.50863314 -0.6037321 0.61866206 -0.22877793
-0.27425337 -0.3493378 -0.15989538 0.41698337 0.09755358 0.11326457 -0.16567904 -0.3029885
0.016371662 0.051961888 0.5605542 0.31678742 -0.59056395 0.60206884 0.14620164 0.542112
-0.14037535 0.011311842 -0.22107069 -0.5699969 -0.107993565 0.4212476 0.16388229 0.22141384
-0.5238105 -0.27701008 -0.014432848 -0.38248292 0.30912188 0.32959506 0.20056526 -0.11090151
0.25566524 -0.14780885 0.117746554 0.025908807 -0.24457309 -0.37814337 -0.2997312 0.010671465
0.53642744 -0.36599898 0.3690133 0.17225721 0.46207088 -0.44127995 -0.079356365 -0.009619197
-0.053979523 0.236556 0.0007346289 -0.083223626 0.22982316 0.20936294 -0.051198907 0.1877801

network.0.bias f4 [64]
00000000: 6caf 37be 19be 883e 7ec7 09bf f653 d73e
00000010: 216b c4be 38fb bbbe 8806 e93e 3fa9 0bbf
00000020: d644 dfbe a68d 213f 679c 033f 1b45 39be
00000030: 0f3f 063f f13a c8be c660 ebbc 48f0 dd3e
00000040: a7cb 9bbe 0d9f 993e 37e9 e3bd 58ad e9be
00000050: 4904 ba3e f67a d0be 9df7 cd3d 4aa8 a5be
00000060: f2ea 66be 6246 33be c561 033f 3fb0 24be
00000070: 16a4 1a3f e15d ef3d e01c bcbe ccac 633e
00000080: 8acd 5e3e f2e8 353e 45ff 88be 08a5 6a3e
00000090: a3ab 99be 1583 673d 7ad5 163f abf6 44bd
000000a0: cd60 c33e e3f9 b7bd 6f74 b1bb c9fb 1a3f
000000b0: 0b14 0a3f 9b17 d5be 1f9d 9c3e 1a83 193f
000000c0: 95b8 83be b5ad 033f 42a4 0ebf c717 3a3e
000000d0: 8f5f 08bf 8a84 ba3e 10ec 62be e815 c4be
000000e0: 044c 06be 125f 6e3e 0042 67be 4731 be3d
000000f0: 3ad1 3cbe ed1f df3e 18c7 1b3f 7bb6 863e
-0.17938012 0.26707533 -0.53820026 0.42056245 -0.38362983 -0.36715102 0.45512795 -0.54555124
-0.43607205 0.63106763 0.51410526 -0.18092768 0.5243997 -0.3910747 -0.028732669 0.43347383
-0.30428812 0.3000416 -0.111284666 -0.45640063 0.36331394 -0.40718812 0.10056994 -0.32354957
-0.22550562 -0.17507318 0.5132106 -0.16082858 0.60406625 0.11687828 -0.3674078 0.22233886
0.21758094 0.17764643 -0.26757255 0.22914517 -0.3001376 0.056521494 0.5891949 -0.048086803
0.3815979 -0.08983209 -0.0054154913 0.60540444 0.53936833 -0.41619572 0.30588624 0.5996567
-0.25726762 0.5143693 -0.5571939 0.18173133 -0.5327081 0.36429244 -0.22160363 -0.38297963
-0.13114935 0.23278454 -0.22583771 0.09286743 -0.18439189 0.43579045 0.6085067 0.26311097

network.2.weight f4 [128, 64]
00000000: 9272 c33d 500f a3bc 2843 88bd b257 a8bd
00000010: 7450 71bd 60e9 803d da7d c03d d468 ae3d
00000020: bc8f d63d f4da 183d 02a9 e63d 142b 8dbd
00000030: d07b 69bd 889e f2bd ece8 12bd 08c8 6c3d
00000040: 3ee3 943d fe7b e23d 58e5 313d 60f7 2c3d
00000050: 9695 bb3d e087 acbd 1068 dc3d 7a67 b03d
00000060: 9eb2 f5bd e6bc babd 70bc 713c f8d2 dcbc
00000070: 4090 fdbb 1243 e03d 78ad 963c 188c d53d
00000080: e0fe d03b f051 8a3c 2ebe eabd 5c97 29bd
00000090: 2ab4 93bd 6003 7f3d b0bb 663d 48cc f5bc
000000a0: 5cba 83bd d0d9 363c 4a00 ddbd 4a9b b3bd
000000b0: 20d1 92bd e083 9cbc 4ee4 aa3d d02e 42bd
000000c0: 400c fcbc ac96 0e3d c808 a63d 62d1 c7bd
000000d0: a065 d83c 40e6 633b c853 bbbd f8e3 d13c
000000e0: 404d 21bd d4a0 4abd 4ecb cd3d b03b 3ebd
000000f0: 7c3c 273d 2095 d1bd c84e 27bd c0e3 773b
00000100: ea30 ae3d 339d 2cbd 7889 ebbc c739 063e
00000110: d057 843c e004 2f3d 0836 1f3e a458 8cbd
00000120: 4895 0cbd f8cc 4639 206d 243e acbe 583d
00000130: ec18 efbc babd c83d 697d 9b3c 8b8b 2b3e
00000140: c271 bf3d 7c3c f23d dc73 a3bd 8450 0dbd
00000150: 375f 273e bc55 213d 838f 12bd 3826 89bc
00000160: 94d8 513d 7890 f0bd 247a 9fbc 40ce 59bc
00000170: a4cf bb3d 285a a13d 04c2 08bd d06d 533d
00000180: f0ed a43d c23a 5dbd 86db cfbd b0dc f23d
00000190: b2e1 febd b538 533d 5cec 9c3d d0f6 9cbd
000001a0: 6427 223e fe82 fa3d 4687 47bd 2c25 b63d
000001b0: b09e 59bd c81c c9bd 71bc cabc 7de7 393e
000001c0: e884 70bd 81b8 6ebd 085f a13c 8a15 1c3e
000001d0: 0420 0dbd f7d2 0a3e c4c6 6fbd 468d 88bd
000001e0: 5c32 af3d c32b 02bd 9444 49bd 4622 b13d
000001f0: c427 6a3d 5455 e53d c815 183e ff94 353e
00000200: 8690 c4bd 92e4 0b3e e277 b43d 862f 113e
00000210: 4240 cfbd bcd4 88bd 5f2f 6e3d 324b d73d
00000220: 2e2e eabd 1ad4 6ebd 1091 013e 0030 cc3d
00000230: 76d5 0c3e fce1 e9bd d5eb a0bd 0b29 30bd
00000240: b02c 29bc 255b 093e 9c5f d13d 5869 afbd
00000250: d6ff 113e dc81 7ebd dd83 e43d f6a5 93bd
00000260: 4ef4 adbd 180e 82bd a28f 803d 7080 923d
00000270: e81d 76bd baca af3d a61b bcbd 38c8 0c3e
00000280: 3919 713c 0e5b b5bd 9431 87bd 7230 883d
00000290: 72d3 f53d e3c4 d7bd b69b 7abc 82a6 8abd
000002a0: a0e6 7ebc 3816 d1bc c719 023e f137 da3c
000002b0: 631a babd 2022 82bd 6edb db3d 3765 43bd
000002c0: 90b4 3d3d e999 ba3d 684e b13c 7c8c bd3d
000002d0: 4447 0fbd c712 b63d fea9 e63d 36fb c63d
000002e0: 1aa4 d4bd 2ed7 ed3d d647 83bd 6b27 adbd
000002f0: 54f1 20bd 1505 fb3d 2cf3 b33c 201f e1bc
00000300: d229 5dbe cb4b 25be 44e5 6abd 263c 0fbe
00000310: cc20 23bd 98f0 453d 55c0 18be c29a 96bd
00000320: 8864 8dbd 6f4b f3bc 690c f5bd 3ef8 9c3d
00000330: d770 cebd 8649 eabd c613 bebd 3988 1dbd
00000340: 8ea4 b1bd 9912 0dbe 8013 813d d010 db3d
00000350: f62f 8d3c 428e 8fbd 2b28 5dbe 9a07 c13d
00000360: f4e6 473d ec57 5ebd c0c0 f338 a02f 123c
00000370: d654 39bd 8449 773c a0c6 f83c 4e3c 3ebe
00000380: 085b 3dbe f459 dfbd a0ae 18bd fa75 e9bc
00000390: e04e aabd 6575 31be 9882 bfbd 907c 50bc
000003a0: 9dc3 0cbe 30c6 803c c9b1 23bd f0d5 41be
000003b0: eafe 2f3b f878 aebd b204 12be 9a47 7abd
000003c0: 1265 e63d f891 33be 26fb f13d 1372 29be
000003d0: 3c35 61bd 5223 55bd 689c a93c 2246 a43d
000003e0: 7668 95bd e3a9 d0bd 20b6 3c3c 65e7 4ebe
000003f0: a05b 9fbd 9eb2 29be d926 ddbd f3e5 bdbd
0.09543337 -0.019904763 -0.06653434 -0.082198516 -0.058914617 0.06294513 0.09399004 0.08516088
0.10476634 0.037318185 0.112627044 -0.06892982 -0.057002842 -0.11846644 -0.035866663 0.057807952
0.072699055 0.11058806 0.04343161 0.042228103 0.09159391 -0.084243536 0.10762036 0.086134866
-0.11996959 -0.09118061 0.0147544 -0.026956066 -0.007738143 0.10950293 0.018393263 0.104271114
0.0063780397 0.016884774 -0.11462055 -0.041404113 -0.07212098 0.062259078 0.056331336 -0.030004635
-0.064320296 0.011160329 -0.10791071 -0.087698534 -0.07168794 -0.019105852 0.08344327 -0.047407925
-0.03076756 0.03481166 0.08107144 -0.097567335 0.026415646 0.003477469 -0.091468394 0.0256214
-0.039380312 -0.049469784 0.10048543 -0.04644364 0.040829167 -0.102335215 -0.040846616 0.0037824959
0.08505423 -0.042142104 -0.028752074 0.13107978 0.016155154 0.04272926 0.15547955 -0.06852844
-0.034322053 0.00018959108 0.16057253 0.052916214 -0.029186688 0.098018125 0.018980699 0.1675245
0.093478695 0.11827943 -0.07981083 -0.034500614 0.16344915 0.039388403 -0.035781395 -0.016741857
0.051231936 -0.11746305 -0.01946742 -0.013293803 0.09170464 0.07878524 -0.033388153 0.051618397
0.080531955 -0.054011114 -0.10149293 0.11858499 -0.12445392 0.051567752 0.076622695 -0.07664263
0.15835339 0.12232016 -0.04871299 0.08893809 -0.05312985 -0.09819943 -0.024748059 0.18154712
-0.0587205 -0.058281425 0.019698635 0.15242592 -0.03445436 0.13557039 -0.058539167 -0.06667571
0.08554527 -0.031780016 -0.049137667 0.08649115 0.05716683 0.11197916 0.14852059 0.17732619
-0.09597878 0.13661411 0.08811928 0.14178285 -0.10119678 -0.06681201 0.058150645 0.10512389
-0.11434589 -0.058307745 0.12652993 0.09970093 0.13753304 -0.11420056 -0.078574814 -0.04300789
-0.010325596 0.13413675 0.10223314 -0.085650146 0.1425775 -0.062135562 0.111579634 -0.07209389
-0.08493863 -0.063503444 0.06277396 0.07153404 -0.060087115 0.08583589 -0.09184961 0.13748252
0.014715486 -0.08855258 -0.06601253 0.06649865 0.120032206 -0.105356 -0.015295913 -0.0677004
-0.015557915 -0.02552329 0.12705146 0.026638003 -0.09087064 -0.06354165 0.10735212 -0.047703948
0.046314776 0.09111387 0.021643832 0.09255311 -0.034980074 0.088903 0.11262892 0.097158834
-0.103828624 0.11613308 -0.06410186 -0.08454784 -0.03929265 0.12256829 0.02196654 -0.027480662
-0.21597984 -0.16142194 -0.05734755 -0.13987789 -0.0398262 0.04832515 -0.14917119 -0.073537365
-0.069039404 -0.029699055 -0.11965258 0.07664536 -0.10080116 -0.11439805 -0.09281115 -0.03845999
-0.086739644 -0.13776626 0.063025475 0.10696566 0.017234784 -0.070095554 -0.21597354 0.09425278
0.04880424 -0.054283068 0.000116230454 0.0089224875 -0.04524692 0.015093211 0.03036815 -0.18577692
-0.18491757 -0.10905829 -0.03727591 -0.028498638 -0.083158255 -0.17329939 -0.09351081 -0.0127250105
-0.13746496 0.015719503 -0.03996447 -0.18929267 0.0026854821 -0.08519167 -0.14259604 -0.06110344
0.112497464 -0.17536151 0.11815481 -0.16547422 -0.05498241 -0.052035637 0.020704463 0.08021189
-0.07295315 -0.10188653 0.011518031 -0.20205458 -0.07781148 -0.16572043 -0.10798425 -0.09272375

network.2.bias f4 [128]
00000000: 261c 91bd 5b77 3d3e c4ee 083e 2636 bebc
00000010: 7878 ddbc d0ee 3c3d 10d0 b1bd 9041 bd3c
00000020: 5083 363c bab8 363c 60b5 113d 1e7f 2b3e
00000030: baaa 55bb b0c6 d43d 146d ed3d bd5f 02be
00000040: b35e 8c3d 9765 493e 0b61 9bbd a067 29bd
00000050: 5e55 bebb fba8 543c 0098 7db9 d09b cd3d
00000060: 5566 843d 74c3 8bbd ea1f d2bc 7a99 11be
00000070: 0a67 e2bd 5cca 283d aaf2 253e 8241 0a3d
00000080: 1aa9 82bd 97c9 593e 50e8 373c 525f 443e
00000090: 8648 e0bd 1fee 7fbd bab7 aabd f9e2 02be
000000a0: 95e6 0fbe acbe 0b3d 7241 b13d be4d b4bd
000000b0: 9c6d e8bd 23f0 653e e456 d53c 16b0 47bd
000000c0: 0019 fa3d a0c1 4f3d 9250 863d ea69 0abe
000000d0: 0964 5c3d 7b17 cf3d 1ef5 debd f0ed 223d
000000e0: 72a7 cfbd b493 763c 9049 2e3e 48df 8bbd
000000f0: 37ec 85bc e969 4dbe c52f 213e dd1f 373e
00000100: 5496 383d acc6 703d 990d 3f3e d879 173c
00000110: 619e e43d f6cf b83d 1b74 b5bb 3ba5 ac3d
00000120: 8073 89ba 5020 01be 0ee1 26be 66f7 043e
00000130: 2896 d7bd 2c56 433d 027c 82bd 68d0 5bbe
00000140: 2918 64be be15 b8bd a803 ecbd 9bea 21be
00000150: 009d e5bd 98ee cdbc 2538 5ebc 9deb 9ebd
00000160: 44ce 8e3b 008e 0bba e69e 7cbc 73c2 e7bb
00000170: b5bc 9f3d f8c4 cb3b 6c14 97bd c481 c1bd
00000180: 8e24 153c 0b2c 113b 51a7 0e3e 090a e8bd
00000190: a1e5 0fbe 5255 3f3d 3d92 3a3c 24df 49bd
000001a0: c4a9 a3bb 6b06 0dbe 7239 09be 9037 f13d
000001b0: 7004 083c 52e0 eebd 2462 c4bd 3501 f03c
000001c0: de5b ff3d ec34 1e3e fe2c 883d b0dd aebc
000001d0: af1e fb3d 614b 84bb efc3 24be 3d00 ea3d
000001e0: d0fd 953d 7031 1f3e 0854 213e 5e04 cdbd
000001f0: d6e7 823d f897 d83d 87bb f7bd 7007 e43c
-0.07085447 0.18502562 0.13372332 -0.02321918 -0.027034983 0.046126187 -0.08682263 0.023102552
0.011139706 0.011152441 0.035573363 0.1674771 -0.0032602982 0.10389459 0.115930706 -0.12731834
0.06854 0.1966766 -0.07586869 -0.04135859 -0.0058085164 0.012979741 -0.00024184585 0.100394845
0.06464831 -0.06824389 -0.025649983 -0.14218703 -0.110548094 0.04120861 0.1620585 0.03375388
-0.0637991 0.21268307 0.011224821 0.19176987 -0.10951333 -0.06248295 -0.08335824 -0.12781896
-0.14052804 0.034117386 0.08655061 -0.08803891 -0.11349031 0.22454886 0.02604241 -0.048751913
0.122117996 0.050721765 0.06558336 -0.13516966 0.05380634 0.101119004 -0.10886596 0.039777696
-0.101393595 0.015049864 0.1702025 -0.06829697 -0.016347988 -0.20059933 0.15740879 0.17883249
0.04506524 0.05878322 0.18657531 0.009245358 0.11163021 0.090240404 -0.0055375225 0.08429953
-0.0010486692 -0.12609982 -0.16296789 0.12985 -0.10526687 0.0476896 -0.06371309 -0.2146622
-0.22274841 -0.08988522 -0.11524135 -0.15812151 -0.11211586 -0.025138184 -0.013563191 -0.077597834
0.004358085 -0.0005323589 -0.015418744 -0.0070727407 0.07799665 0.006218549 -0.07376942 -0.09448579
0.009102954 0.0022151496 0.13931014 -0.11330039 -0.1405244 0.046712227 0.011387405 -0.04928507
-0.004994603 -0.1377198 -0.1340082 0.11778176 0.008301839 -0.116638795 -0.09589031 0.02929745
0.12468694 0.15449876 0.066492066 -0.021345943 0.12261712 -0.004037306 -0.16090368 0.11425827
0.073238015 0.15546203 0.15754712 -0.100105986 0.063918754 0.10575861 -0.12096315 0.027835578

network.5.weight f4 [256, 128]
00000000: 6a28 533c cdfd 58bd 7d28 c8bd 8ed9 fb3c
00000010: ffdc 973b d9fc 1b3d 2267 80bd a0a0 973b
00000020: 9e69 d43c 5b96 853c 83a0 a0bd 9c42 1ebd
00000030: 0030 0eb6 6a32 013d cb2a 2e3b 8a0e 903d
00000040: 47c8 3bbc 3232 a4bd dc7c 89bb be3e 403d
00000050: 33f9 eebc 5433 01be f69d 743d 45a9 343d
00000060: 2d49 0a3d 128e 31bd 6be8 3dbb 00b1 0839
00000070: 71ba ee3c 2dea 3f3d 7bfa 98bd e37f 88bd
00000080: 6c83 593c 2968 1f3d 1d6b 963c 0d12 46bd
00000090: b634 1a3c 3fb0 0b3c 0f4c 703d a927 103d
000000a0: 0a15 783d 4246 debc 4149 b13d c6ab 2abc
000000b0: 297f 6f3d e251 9fbd 9052 55bb 1a51 1b3d
000000c0: fdda 3a3d b106 983d 6e74 503d 8331 1fbd
000000d0: 7cd1 adbd 3a4a 17bc 9355 80bd 68d7 173d
000000e0: b7ff 253d fdb8 91bd 7e6e 01be 8675 9c3d
000000f0: 89ad 7bbd 20cd 72bd a1bb 04bd a03c 503a
00000100: ee8b 9eb8 226d 183d b0dd 1b3d 9d70 8bbd
00000110: cb84 c3bd 4aa1 b93c 97ae 93bd e42c bebd
00000120: 0f7a 9bbd 2a91 8abd ebef 6ebd 4cdd a1bb
00000130: 9d56 a13d 114d c0bc 2cfd f33c 22bf b4bd
00000140: f248 efbc da10 653c db9e 9c3d 640e 73bc
00000150: b2a7 df3c fbf6 8e3d 10ff 16bc 319b 0ebd
00000160: 8741 b6bd 9697 5f3d 43e8 09bd 6bbc f2bd
00000170: 2017 57bd 8c1f b2bb 658a 93bc fcc4 483d
00000180: c29d e2bb 19fd 80bd 5872 173d 7cd0 af3d
00000190: 06fc cdbc 66bc 16bd e484 073d 7ffa 7abd
000001a0: 58c4 763c 40ef 8d3d 366b a53d 5161 0ebc
000001b0: c01b 6c3c 9562 9a3c e665 9b3d e1f0 613d
000001c0: b6c7 513d 242d f93c 4543 143d 1f42 2d3d
000001d0: a022 70bc f567 a4bd 277b 92bc 7c94 493d
000001e0: 9690 123c 0652 db3c 0291 93bd fcb5 97bd
000001f0: 2c3f 463b 5343 d4bd f4ff 4e3d 4494 273d
00000200: cb58 40bc 728c d73d c33f e53d c00a 133e
00000210: 9bc9 043d 32ad 493e 7ff3 8b3d eed1 ab3d
00000220: a8a6 113e 376b 323c 713a 45bd 17e8 ad3c
00000230: 5cb7 2fbd 458b a33d 73f5 62bd ab58 ec3d
00000240: bfd2 cb3d 8294 9a3c 2cac bc3d 6b2f 6c3c
00000250: 77c7 093d e902 223e b3dc 08bd d692 1e3d
00000260: 6179 263e 7e24 1c3e 13a1 a73d 496c bcbd
00000270: 2407 173d 9fde 2cbd 16e0 1d3e 368d ff3b
00000280: 0489 3c3e de0b 153e 3824 93bc 5675 96bb
00000290: 54cc 51bd 420e ec3d c75f eabb e9e7 143e
000002a0: 947d 203e 384f b0bd 87ac 2f3e 8279 d339
000002b0: 84c5 263d f4eb 263e 5efc 293e d497 333e
000002c0: ce1e a8bd b926 16bc 8158 003e afb3 bd3d
000002d0: 13ca 0a3e eecd c53d 4f7f 923c c35d ebbc
000002e0: a0d8 38bd 1a17 e33d 985e c73d 725f eabc
000002f0: 66b1 2e3e 9baf 2c3e bbbd 2f3e 0a34 383d
00000300: 345d 8c3d 5397 153d cabd 2e3d a13d e53d
00000310: 5595 ea3d 7794 a53d a802 103e 8a8e 143d
00000320: ebba 9d3d a5b1 ec3d 0c02 883d 3059 653d
00000330: 6b9e 21bd 4154 ea3c 33d6 563d 9d69 b73d
00000340: 2275 3e3c 55e1 2b3d c39a 893d 009c 2d3e
00000350: fd44 4abc 8ff0 ea3b 459c 1fbd 178e 203e
00000360: a78d 7e3d 3f3c adbd d5f6 70bc ec36 263e
00000370: c556 ac3d 137e ed3d 02ed 0cbd 7a7c 56bc
00000380: 4bfd 873d b4eb 293d 6594 c53d 3326 213d
00000390: 14f4 463d 5a9b ef3c 3ca0 57ba 227f 9cbd
000003a0: a759 263e a55a 933d b784 4d3c 6d53 193e
000003b0: 31fc 273d 3279 043c 796d ef3c e417 983d
000003c0: 0d3e 923d 10eb f43d 58d0 2e3d d376 a73c
000003d0: ec1b b53d 6693 113e 7be7 3b3e f79d 123e
000003e0: 51e0 5b3d c515 023e 0015 ba3d 135f d0ba
000003f0: a994 033e 51f3 0b3e 540c 343e 58c3 0e3c
0.012888053 -0.05297642 -0.097733475 0.030743387 0.004634499 0.03808293 -0.06269671 0.0046273023
0.025929268 0.016307047 -0.07843115 -0.038637742 -2.1187589e-06 0.03154222 0.00265758 0.07034023
-0.011461324 -0.080173865 -0.0041957926 0.046934836 -0.029171562 -0.12617236 0.059720956 0.04410674
0.033761192 -0.04334838 -0.0028977643 0.00013035908 0.029141637 0.046854187 -0.0746965 -0.066650175
0.013275962 0.038917694 0.018361622 -0.04835706 0.009411981 0.008525907 0.058666285 0.035194073
0.06056694 -0.02713311 0.0865655 -0.010416931 0.05847088 -0.0777929 -0.0032550432 0.03791914
0.045619 0.07423151 0.050892286 -0.038865577 -0.084872216 -0.009234006 -0.06266322 0.03707066
0.04052707 -0.07115362 -0.12639806 0.07639603 -0.061444793 -0.059277654 -0.0324055 0.0007943604
-7.560091e-05 0.037213452 0.038053215 -0.06808589 -0.095468126 0.022659916 -0.07211035 -0.09285906
-0.0759164 -0.06765969 -0.058334272 -0.0049397107 0.07877848 -0.023474248 0.029783808 -0.08825518
-0.029209588 0.0139810685 0.07647487 -0.014834974 0.027301643 0.069807015 -0.009216085 -0.03481597
-0.08899217 0.054587923 -0.033668768 -0.11852344 -0.052512288 -0.0054358896 -0.018010328 0.049015984
-0.006915779 -0.062982745 0.03697428 0.08584687 -0.025144588 -0.036800765 0.03308572 -0.061274048
0.01506146 0.06930399 0.080770895 -0.008690194 0.014410913 0.018845836 0.07587795 0.05516136
0.05121585 0.030417033 0.036196966 0.042299386 -0.014656693 -0.08027641 -0.01788099 0.04921387
0.008945605 0.02677251 -0.072053924 -0.07407758 0.0030250056 -0.103644036 0.050537065 0.04091288
-0.01173992 0.10524835 0.11193802 0.1435957 0.03241883 0.19694975 0.068335526 0.0838965
0.1422373 0.01088982 -0.048151437 0.021228833 -0.042899475 0.07985548 -0.05540986 0.115403496
0.09952306 0.018869642 0.09212527 0.014415602 0.03363749 0.15821423 -0.0334136 0.038714252
0.1625724 0.15248296 0.08185019 -0.09200341 0.036872044 -0.042204496 0.15417513 0.007798816
0.18411642 0.14555308 -0.017961606 -0.0045916243 -0.051220253 0.11526157 -0.007152531 0.14541592
0.15672904 -0.0860886 0.17155658 0.00040335587 0.04071571 0.16300946 0.16600177 0.17538387
-0.082090005 -0.009164506 0.12533762 0.092627876 0.13553648 0.096584186 0.017882971 -0.028731233
-0.045128465 0.11088391 0.09734839 -0.028609965 0.1705986 0.16863863 0.1716222 0.044971503
0.068537146 0.036521267 0.042661466 0.111933954 0.11454264 0.08084958 0.14063513 0.03626875
0.077016674 0.115573205 0.066410154 0.05599326 -0.03945772 0.028604629 0.05245037 0.08955691
0.011624606 0.04196294 0.067189716 0.1695404 -0.01234555 0.00716979 -0.03896739 0.15679203
0.06214681 -0.08458757 -0.014707287 0.16231889 0.084149875 0.115963124 -0.034405716 -0.013091201
0.06640109 0.04148455 0.09647445 0.03934307 0.048572615 0.029248882 -0.0008225476 -0.07641436
0.16245137 0.071950234 0.012543849 0.1497323 0.041011993 0.008085536 0.029227005 0.07426432
0.071407415 0.11958897 0.04267916 0.020442402 0.08843216 0.14216384 0.18350022 0.14318071
0.05368072 0.12703617 0.09086037 -0.0015897475 0.12849678 0.13667037 0.17582828 0.008713566

network.5.bias f4 [256]
00000000: f72d 97bc 3fae 1d3e 5f96 a8bd 7129 053c
00000010: 4ec9 8ebd 3aec 0a3d 9881 05be 3c68 38be
00000020: 9d82 c3bd e385 fc3a 8407 6ebd 7f6c 1dbe
00000030: 2f4a 15be 5220 a9bd 9c29 7cba 8625 e93d
00000040: c122 a03d afe3 edbd 1acb e0bc 4d40 08be
00000050: 419c 14be f09a b6bd 4a06 d73d 4704 8abd
00000060: c590 59bb 0a49 61bc 8ed4 643d 13b1 c9bd
00000070: 155e 033e 30e7 75bd 195e 3fbd 0ce9 72bd
00000080: 7e76 6a3d 6483 373e 18dd 39be 1bb1 e9bd
00000090: f850 2bbe 6963 2ebd 015f 25be ccc9 c2bd
000000a0: c6f4 5bbd c9dc 193e 36dd 3e3d c12f ed3d
000000b0: 403e dbbd ab04 d03d 1c54 38bd b567 abbd
000000c0: ca86 65bc c0eb 4039 7365 afbd 477d c7bd
000000d0: a152 1c3e 1077 a3bd 90e8 1bbd 69bb 14be
000000e0: 285f 413e 692d c63d 8431 debd 6b8f fcbd
000000f0: fc9e 18be 4dfb 86bd e98c 2fbd bf4b 66bd
00000100: 78fe 8bbd 8524 f6bd b929 783d f1d1 083e
00000110: f213 c1bd ad0d 14bc 97c9 c9bd 5ec4 b43d
00000120: fe30 5ebd 884c b4bd fc2e 01bb da30 40bd
00000130: 406c e2bc 4ea9 99bd cb63 f1bd ef45 86bd
00000140: 6104 cb3d d34e 07be e891 a53d 448b 2fbe
00000150: 3064 293e 2671 bbbd a890 00bd fec8 993d
00000160: f72c 47bd 2383 3abe 8684 75bd 1410 7dba
00000170: 6924 fb3d 3ea8 163e 212f e13d 882f 3a3e
00000180: 3c32 57bd b963 d83d 995a 24be 9131 a5bd
00000190: 1da4 3f3e 5c0c cb3d e559 413e 53e8 0fbe
000001a0: a72e 8b3d e1c7 963d 0c7b 50bd e98a 80bd
000001b0: 2804 debc b822 d0bd 87db 983d 6feb efbd
000001c0: 02ec e2bc dde8 cdbb 75ac 7abc 4bac d7bc
000001d0: 9174 dc3d 5802 1e3e 0ace 5f3d 6eab 27bb
000001e0: 0f2e 433e 2807 78bb 9e1c 0e3e 85b7 8abd
000001f0: 4327 19bc 9496 263e 4e6c 013d f67c f3bc
00000200: a3be 943d 1c0b 393d dd9b 00be 31a8 ffbd
00000210: defe dbbd 1c99 f43d bc9d b43c 26ee 19bc
00000220: 3158 9dbd 7855 213e 6f52 03be c0e1 0f3e
00000230: 0072 debd c0b6 98bd 6f10 0b3e bb61 483e
00000240: f3e0 f3bd c3d3 c93d 4f23 98bd 8849 053e
00000250: 4f96 e9bd a283 3c3e d767 113e 4783 0e3e
00000260: 3c7c 1bbd 83bc 0b3e 1295 0a3e 04ce 3c3e
00000270: 7cc8 3a3e ed45 4b3e 1779 89bd 658b 8bbd
00000280: 022f 9abd 3f8a 403e 28f5 273e 51d6 e9bd
00000290: 7cb8 78bd 00cf 60bd 7093 823d b079 eb3a
000002a0: 0857 69bd 1322 023e b21e a4bc d791 e8bd
000002b0: 3a8d 00bd fa7d 51bd 8e34 923d 7da0 433e
000002c0: 9ef2 3bbe b668 cfbd 2625 02be a4de 973d
000002d0: a7ba 5b3c 3249 92bd 0656 3d3d 17a5 d5bc
000002e0: 0c13 f4bd 9e34 99bc f68f 86bb 90b2 a9bd
000002f0: 2beb 19bd 9cd7 debd 9883 e6bd d9dc de3d
00000300: 782f 26bd 198d 433e 9375 dc3c fc2b 94bd
00000310: 58e1 293e bb51 c5bd 3a42 eebd ce77 83bd
00000320: cde4 96bd 9b00 e13d b685 403e 57fa b9bc
00000330: 69f1 39bd e154 c0bd 7613 11be 60f0 aebd
00000340: 7295 9dbc 8ca9 8abc 51bf 8bbd 05b0 e6bd
00000350: c207 cfbc 7d62 2e3e 4af8 0abe e0f6 bfbc
00000360: 9182 96bd b415 203d 17f3 1f3e b841 c2bc
00000370: 6f91 37bc fdf3 ba3d 7fde ecbd ce2a e33d
00000380: ff2e f8bc da40 3ebd cb88 0ebd 60bb 9f3d
00000390: 32b9 313e c1f1 99bc 7926 9cbd 48a7 e6bc
000003a0: 4538 1bbe 3b3b bdbd a069 8ebd fb98 c33d
000003b0: 2600 27be 942e 8a3d a739 bb3c 5d05 b3bd
000003c0: 8204 7abd 07bc bcbd cf14 483e fd79 243e
000003d0: 2c6e c03b bc82 19bd 238d c23d a428 da3c
000003e0: 7546 21be 610a 203e 77ca 403e 139a 793d
000003f0: 8898 003e 949b 193e d150 133e 0551 c0bc
-0.018454535 0.15398501 -0.08231806 0.008127556 -0.069719896 0.03391669 -0.13037717 -0.18008512
-0.09546397 0.0019265976 -0.058112636 -0.15373419 -0.1457908 -0.08258118 -0.00096192374 0.1138411
0.07819129 -0.11615693 -0.027440596 -0.13305779 -0.14512731 -0.08916271 0.104992464 -0.06739097
-0.0033197862 -0.013750324 0.05586677 -0.09848227 0.12828858 -0.06003493 -0.046720598 -0.059304282
0.05724191 0.17921215 -0.18150747 -0.11410733 -0.16730106 -0.042575274 -0.16149522 -0.09511146
-0.05370023 0.15025629 0.046597682 0.11581374 -0.107052326 0.1015714 -0.045002088 -0.0836939
-0.014009187 0.0001839837 -0.08564272 -0.09740692 0.15265895 -0.07981694 -0.038063586 -0.14524616
0.18883955 0.0967663 -0.10849288 -0.12332042 -0.14904398 -0.065909006 -0.04285899 -0.05622458
-0.068356454 -0.12018684 0.060586665 0.13361336 -0.094276324 -0.009036464 -0.09852903 0.088265166
-0.05424594 -0.0880366 -0.0019711843 -0.04692159 -0.027639508 -0.075029954 -0.11786612 -0.065563075
0.099129446 -0.13213663 0.0808447 -0.1714297 0.16542125 -0.09152441 -0.031387955 0.07509039
-0.048626866 -0.18214087 -0.059940837 -0.000965358 0.12262804 0.14712617 0.10995317 0.18182194
-0.05253814 0.105658956 -0.16050185 -0.08066095 0.18714948 0.09914467 0.18881948 -0.14053468
0.067960076 0.073623426 -0.050898597 -0.06276495 -0.027101591 -0.10162872 0.074637465 -0.11714827
-0.027700428 -0.006283863 -0.015299906 -0.026327273 0.10764421 0.15430582 0.054639854 -0.0025584358
0.19060539 -0.0037846062 0.13878104 -0.06773285 -0.00934774 0.16268378 0.031597428 -0.029722672
0.072629236 0.04517661 -0.12559457 -0.12483252 -0.107419714 0.11943266 0.02204787 -0.009395158
-0.07682837 0.1575526 -0.12824415 0.1405096 -0.108615875 -0.07456732 0.13580488 0.19568531
-0.1190814 0.098548435 -0.074286096 0.13016331 -0.11405622 0.18409589 0.14199768 0.13917266
-0.037960276 0.1364613 0.13533428 0.18437964 0.18240541 0.19850893 -0.06712549 -0.06813697
-0.07528497 0.18802737 0.16402113 -0.11417831 -0.060722813 -0.05488491 0.06375778 0.0017965343
-0.056967765 0.12708311 -0.020034168 -0.11355942 -0.031384684 -0.05114553 0.0713893 0.1910419
-0.1835427 -0.10127394 -0.12709484 0.07415512 0.013411201 -0.07142867 0.046224616 -0.026079698
-0.119176954 -0.018701848 -0.004106517 -0.08286011 -0.03757779 -0.10880968 -0.11255568 0.10881967
-0.040572613 0.19096793 0.026911533 -0.07234952 0.16589868 -0.096347295 -0.116337255 -0.06419335
-0.07367859 0.109864436 0.18801007 -0.02270238 -0.045396242 -0.09391189 -0.1416758 -0.08541942
-0.0192363 -0.01692655 -0.068236 -0.11264042 -0.025272254 0.17029758 -0.13571277 -0.023433149
-0.07349122 0.039083198 0.15620075 -0.023712978 -0.011204108 0.09128568 -0.11565875 0.11092149
-0.030295847 -0.046448566 -0.034798425 0.07799411 0.17355803 -0.018792035 -0.076245256 -0.028155938
-0.15158184 -0.09239813 -0.0695374 0.09550663 -0.1630865 0.06747165 0.02285464 -0.08741257
-0.061039455 -0.09215551 0.19539188 0.1606216 0.0058725085 -0.037478194 0.09499576 0.026630707
-0.15749533 0.15628959 0.18827234 0.060937952 0.12558186 0.15000755 0.14386298 -0.023476133

network.7.weight f4 [128, 256]
00000000: 985a a1bc 2480 dc3c 08e1 6b3d 0060 6437
00000010: 0471 ddbc f426 433d f001 5fbd dcfa b23c
00000020: acef a7bc 4ccc f4bc 30fb 7b3c 16e6 0a3d
00000030: ec75 bc3c 0096 9439 5e05 5d3d dc60 c0bc
00000040: 686b 1b3d 4cbb b03c 7ab2 7a3d 62eb 463d
00000050: 20c8 2dbb 8012 d63a f02f a53b 4075 473d
00000060: 80dc f83b d05f 72bd 5212 28bd 58c4 5abd
00000070: 5835 3bbc 3c92 5b3d 7ee9 013d b086 8a3b
00000080: fe8d 06bd d23e 4e3d 20ce 43bc c088 b93c
00000090: 6cc6 94bc ac13 f2bc 0062 fe39 a4b4 053d
000000a0: 188e f8bc 08d0 053c be48 35bd c44d c13c
000000b0: e842 2dbc 88f5 2abc 2018 a4bb c0bd 613c
000000c0: 507e 95bb d09d d9bc 400e 28bb 0c84 a53c
000000d0: d41c d33c 3c75 74bd 8028 0dbd 6017 083b
000000e0: 987c 3fbc 5a11 2fbd 482f cd3c 3ecd 3a3d
000000f0: 7c94 fd3c 78d0 783d 78b2 2d3c 2634 39bd
00000100: 80ac a2bc 1840 6f3d 00a6 9e3b ee35 67bd
00000110: f876 df3c 003d 2d3c 1289 153d b8ed 7dbc
00000120: 4a65 1a3d 8ed1 5f3d 0493 b4bc 5473 cfbc
00000130: 50e8 cabc b8e5 c33c 78a3 23bc 0eff 413d
00000140: 401f afbc a8d0 be3c 00b9 0b3a 504f 0cbd
00000150: 5c13 78bd 90af 723c f03f 6abc deb8 22bd
00000160: 44eb 283d f62b 423d 1873 afbc f635 2d3d
00000170: 8430 343d a43b 533d 8e99 213d f003 f5bc
00000180: 4879 2abd dcf5 b53c 380e 2b3d f0bf b93c
00000190: b811 67bd 16fc 62bd 086d 0f3d bc2b 983c
000001a0: 68ed 7ebd 543e e23c 04d2 f73c 4c8e 38bd
000001b0: b263 6d3d 9051 bd3b 9a03 7b3d 3c55 0a3d
000001c0: 004a 2bbb 00a1 293d 4053 ac3c 78f0 07bd
000001d0: a085 cd3c 40d6 d83b 08c1 23bd 3c08 b73c
000001e0: a0b5 143c 8095 c9bc 58f7 9bbc e8a8 5f3d
000001f0: 10ec cf3b 00e9 c539 6ed4 793d 6857 593c
00000200: 502a 74bc 78ff c73c 208f f83c eeee 06bd
00000210: c00c 343c 6698 68bd e0cd e5bb 0853 07bc
00000220: 2070 e33c 1844 133d 007b e7bb eac1 393d
00000230: 60cb 0d3b fe25 1cbd e4c4 5b3d 9023 0b3c
00000240: c050 62bd f8d2 5abc 5c74 fdbc f22f 34bd
00000250: 00d1 e33b b895 a5bc 4ea2 083d 5436 9abc
00000260: c228 42bd f097 25bd 1844 07bc b461 233d
00000270: 0c5a 863c 7ce9 053d 60ba d63b 7c44 83bc
00000280: d8a6 353d 90f3 4fbc 18f1 073c 4463 5cbd
00000290: c00f d5ba 3aeb 5f3d da1a 05bd fc62 1b3d
000002a0: d43a c33c 9063 823b 14f7 e53c 9ca0 bc3c
000002b0: 9cd7 a73c 24d0 74bd 1e34 3d3d 3c9c 963c
000002c0: 06a0 17bd 6e1d 443d f037 9d3b 00f1 d03b
000002d0: 14cc ebbc c0cf 773b 6cf0 31bd 9642 043d
000002e0: 8059 4ebd b03a 6e3d b848 5cbc b252 343d
000002f0: c2e3 43bd ec7f 3b3d 6cd6 28bd c0c2 e83b
00000300: 684e 533d e60e 693d 806a 96bb c88a 67bd
00000310: 00da c63c c89a 533c 3cdf 6d3d 3297 56bd
00000320: 943c c23c 000c 7ab9 7627 6ebd cc0c 153d
00000330: ccea 95bc 8055 96ba f0ee c13b ba4b 3dbd
00000340: 80d2 3c3c c051 a4bb 3c0e 323d 64ec 813c
00000350: 1217 4e3d 7a8c 4abd de35 7fbd a82c 6abc
00000360: ca28 62bd a4d7 bdbc b6b3 69bd 767d 18bd
00000370: ec04 743d 0c05 d63c d215 363d 6a5c 7dbd
00000380: a0e6 47bb 70eb 733d 6080 22bc 888f db3c
00000390: 006d 0a3d 1051 613d b80a 183d 40e9 903c
000003a0: 00ab 913a 14b3 b13c 5630 4e3d 6277 3abd
000003b0: f07e f7bb d076 b33c 8827 713d 0e9b 673d
000003c0: c06f 4a3b 1ef3 473d 048a 143d 64a9 29bd
000003d0: 8029 75bb ea58 173d 8a8d 7fbd 88a6 19bd
000003e0: 7c74 39bd 8c15 01bd b20e 6e3d 5c86 bf3c
000003f0: a6ae 51bd b0d6 fbbb d4c1 d13c 3c08 2a3d
-0.019696519 0.026916571 0.057587653 1.3612211e-05 -0.02703143 0.04764457 -0.054445207 0.021848135
-0.020500027 -0.029882573 0.015379712 0.033910833 0.023005448 0.00028340518 0.053960197 -0.023483686
0.037944227 0.021573685 0.061205365 0.048564322 -0.002651699 0.0016332418 0.005041115 0.048695803
0.007594645 -0.059173405 -0.041033097 -0.053409904 -0.011426292 0.053606257 0.031716816 0.004227482
-0.032850258 0.05035288 -0.0119509995 0.022648215 -0.018161021 -0.029550396 0.0004851967 0.032642975
-0.030341193 0.008167274 -0.044258825 0.023596652 -0.010575034 -0.010434516 -0.0050077587 0.01377815
-0.0045621768 -0.026564509 -0.002564326 0.020204566 0.025770582 -0.059682116 -0.034462452 0.0020765886
-0.01168742 -0.042741157 0.02504696 0.04560589 0.030954592 0.060745686 0.010601632 -0.04521575
-0.019857645 0.058410734 0.004841566 -0.056447916 0.027278408 0.010573626 0.036507674 -0.015498571
0.037694253 0.054643206 -0.022042759 -0.025323547 -0.024768978 0.02391325 -0.009987704 0.04736238
-0.021377206 0.023292854 0.00053299963 -0.034255326 -0.060565338 0.014812365 -0.01429747 -0.039727084
0.04123999 0.047405206 -0.021417186 0.04228779 0.04399158 0.05157055 0.03945308 -0.029909104
-0.04161957 0.022211961 0.041761607 0.02267453 -0.056413382 -0.05541619 0.03501609 0.018575542
-0.062238127 0.027617611 0.03025151 -0.04505758 0.057956405 0.0057775453 0.06128273 0.033772692
-0.0026136637 0.041413307 0.02103579 -0.033188313 0.025088131 0.0066173375 -0.03997901 0.022342794
0.009076506 -0.02460742 -0.019038841 0.05460444 0.0063452795 0.00037748367 0.060993604 0.013265468
-0.014902666 0.02441381 0.030341685 -0.032942705 0.010989368 -0.056785963 -0.0070130676 -0.008259542
0.027763426 0.03595361 -0.0070642233 0.045350946 0.0021636114 -0.03812217 0.053654566 0.0084923655
-0.05525279 -0.013355963 -0.030939274 -0.043991037 0.006952405 -0.020212993 0.03335791 -0.018824734
-0.04740215 -0.040428102 -0.008255981 0.0398881 0.01640036 0.03269337 0.0065529794 -0.016023867
0.044348568 -0.012692347 0.008297227 -0.053805605 -0.0016255304 0.05466769 -0.03249631 0.037936196
0.023831762 0.003979154 0.028071918 0.023025803 0.020488553 -0.05976881 0.04619228 0.018385045
-0.037017845 0.04787963 0.004797928 0.0063763857 -0.028783835 0.0037813038 -0.043442175 0.032290064
-0.050378323 0.058161438 -0.013445072 0.044024177 -0.04782463 0.045776293 -0.041220114 0.007103294
0.051588446 0.056898974 -0.0045903325 -0.056528836 0.024273872 0.012915321 0.05807422 -0.052390285
0.023710527 -0.00023846328 -0.0581431 0.036389157 -0.018300436 -0.0011469573 0.005918376 -0.046214797
0.0115247965 -0.005014628 0.043470606 0.01585979 0.05031497 -0.049450375 -0.06230723 -0.014292873
-0.05521468 -0.023174115 -0.05705615 -0.037229024 0.059575006 0.026125453 0.044454403 -0.06185571
-0.0030502453 0.059550703 -0.009918302 0.02680184 0.033795357 0.055008948 0.037119597 0.017689347
0.0011113584 0.021691836 0.050339065 -0.04552401 -0.007552974 0.02190724 0.05887559 0.056544356
0.0030889362 0.04881584 0.036264434 -0.04142131 -0.003740877 0.03695003 -0.06239084 -0.037512332
-0.045277104 -0.03151469 0.058119483 0.023379497 -0.05119195 -0.007685505 0.02560512 0.04151176

network.7.bias f4 [128]
00000000: 3ab5 06bd 201b e6bb 79f6 113e c2b9 3b3e
00000010: 3ce6 72bd f61c 0ebd f4f0 fabd d225 7dbd
00000020: a7fb 92bd e497 b9bd 5d06 a8bd 9818 093e
00000030: 4829 2f3c 0ee2 babd 32db 61bd caae 6ebd
00000040: b903 293d 0eb2 473e d6d5 473e 2873 31bc
00000050: f3b5 3cbd 4815 e1bc efd5 f6bd 505e c93d
00000060: b480 913c 0c8a a2bd 80b8 743c d83a 5fbd
00000070: ae86 203e 20cf a63d 483c cbbd a685 ddbd
00000080: 14f0 45bd c416 a8bd 0e44 a5bd d013 19bd
00000090: 362d 243e e5ac a6bd d908 b9bd ad5f 253e
000000a0: f3fa 203e e2cf 8cbd 2dcd d6bd f857 2d3e
000000b0: 5383 9fbd bfdd 533e 603e aebc a689 533e
000000c0: 70f0 10bc f193 f03d c037 95bc d4ed a13d
000000d0: a87a 423e 80ea 49ba d4f6 7fbd ecaf f8bc
000000e0: 1d84 413e 0a78 983b 8d3b 16be 0e4c 483e
000000f0: b89a fd3d d812 443e c82c 3fbc 5946 9e3d
00000100: 8c27 b6bd 50d9 22bc d624 26bd 03f4 4fbd
00000110: 6027 99bd aae9 2ebd 1edd 05bd 0354 153e
00000120: 6c94 bb3d 70c7 d43d 7063 c8bb 7c5e 433d
00000130: 48d8 8fbd 7970 fcbd 8914 16bd 1539 debd
00000140: aebf 3e3e 2daa dcbd 89d5 f9bd a237 ac3d
00000150: f24a a43d 68f7 02be 421c 6dbd f564 c0bc
00000160: d857 e3bd ae5d c3bd d417 f93d 8c99 cebd
00000170: 92da bbbd 2055 e83d 3eeb 7ebd 418a ecbd
00000180: c0b3 4fbd 5bc4 b8bd 9846 e3bd 727a 2c3e
00000190: 150b d5bd a9fd 233e 9bb0 cbbd 4045 c4bb
000001a0: 20a4 ebbc fed7 55bd 1e5d 503e 7bcc 253d
000001b0: 52da 79bd 5d93 d2bd 2029 a43b 4284 1a3e
000001c0: 87d6 453e ad8e 503e 8d71 a93d 298a 00be
000001d0: 68a2 49bd 8903 49bd 9d28 153e c2f0 7bbd
000001e0: 9c82 e5bc a6ca 683e 651b 513e 60b4 5d3e
000001f0: bb3c 493e 4d4a ad3d 74b1 debc 6cbc 1cbd
-0.032887675 -0.0070222765 0.14254178 0.1833258 -0.0593016 -0.034695588 -0.122529894 -0.061803646
-0.07176905 -0.09062174 -0.08204339 0.13388288 0.010690995 -0.09125148 -0.05514068 -0.05827216
0.041263316 0.19501516 0.19515166 -0.010830678 -0.046071958 -0.027475968 -0.12052523 0.09832442
0.017761566 -0.079364866 0.014936566 -0.054499477 0.15676376 0.08144975 -0.09923607 -0.10816507
-0.04832466 -0.08207467 -0.08069621 -0.03737241 0.16032872 -0.08138446 -0.09034891 0.16149779
0.1572073 -0.06875588 -0.10488353 0.16928089 -0.0778872 0.20690058 -0.021269977 0.20657977
-0.008846387 0.117469676 -0.01821506 0.0790669 0.18992102 -0.0007702485 -0.062491253 -0.030357324
0.18898053 0.0046529816 -0.14671154 0.19560263 0.12383026 0.19147813 -0.0116683915 0.077282615
-0.08894262 -0.009939507 -0.040562473 -0.050769817 -0.07478213 -0.04270331 -0.032681577 0.14582829
0.091591686 0.10389602 -0.0061153695 0.04769753 -0.07023674 -0.1232614 -0.036640678 -0.10850731
0.18627807 -0.10774646 -0.12198932 0.084090486 0.08022107 -0.1278969 -0.057888277 -0.02348564
-0.11100739 -0.09539352 0.12162748 -0.100878805 -0.09172548 0.11344361 -0.062236063 -0.11549807
-0.050708532 -0.09021827 -0.11097449 0.16843584 -0.10402504 0.16014732 -0.09945794 -0.0059897006
-0.028764784 -0.05220794 0.20348021 0.04047821 -0.060999222 -0.102820136 0.0050097853 0.15089515
0.19320117 0.20366926 0.08273611 -0.12552704 -0.04922715 -0.049075637 0.14566274 -0.0615089
-0.028016381 0.22733554 0.20420606 0.21650839 0.19652073 0.084614374 -0.027184226 -0.03826563

network.9.weight f4 [2, 128]
00000000: df9f 5d3d 9d4a 84bc ac60 4ebd 03aa 8bbc
00000010: 455f 96bc d8a2 8dbc 36f1 ab3d 8a5f fe3c
00000020: 07ab f83d 1ecd d8bc cc29 393d 90c1 223d
00000030: 86a2 50bd 9b2f ff3d a816 793d a20b d73d
00000040: 1b67 0c3c ad40 dcbd f0a0 94bd 039b 0d3d
00000050: 5ccd 3e3c 929e 2c3d d6de bf3d 71ae ed3c
00000060: 1dcf 7fbd 2221 2e3e 0832 193d 55e9 f13d
00000070: 4042 493c 239e bdbd e73c 983c 6cb7 fe3c
00000080: d6a1 e83d c38b ee3d 13e1 b43b c110 58bd
00000090: 697c 083d f6b0 cb3d 423e 123e 3ffe 3bbd
000000a0: 4446 0b3c a9e4 f33d fe17 0c3e 402f 1cbd
000000b0: 2ead 8d3c 8264 46bd 845f 61bd e0f8 89bd
000000c0: 203a b1bd db22 f13c 7d0e 9bbd 2664 6bbc
000000d0: d09a 48bc fe6f 90bd 58ad 11bd 5bcd 10bd
000000e0: de32 dabc a06c 5c3c 443a d93d 80c2 6f3c
000000f0: 9017 eb3c 772a 4c3d 3fa0 66bd 8ad8 09be
00000100: e172 fd3c 6fb6 7cbd d20f 3a3e 5283 7c3d
00000110: eb41 ce3d 18e1 ea3d baf5 5bbc 01e6 533c
00000120: ee64 66bd 53e9 eabd fa04 0abc 7fc0 433c
00000130: dffb b73c d831 0e3e 2a91 aa3d 12bc 753b
00000140: a694 27bd b39f 213e 73b6 ee3d e19f fdbd
00000150: 2d3b 0ebd 21f1 1f3d a08e 9f3d 7f13 bfbd
00000160: 05fa b2bc 46f3 a0bd e8f8 fbbc fbfc 003d
00000170: f8de d93c b477 583d 0194 793c 08dc d5bc
00000180: dc2e 913c 301e 243e 54ec 3e3e 4099 10ba
00000190: a8b4 763c 853f 84bb 794a 1c3e 780c 753d
000001a0: 3bd7 9bbd fe4f 1e3e 673a 9cbd 682e e0bd
000001b0: 8b1c 9cbd d11f eb3d 0707 80bd a490 373d
000001c0: 134f a0bd 248d 49bd 2a0a 9f3b 262d e53d
000001d0: 8d13 383e c8fe 143e 532c 86bd 5e53 90bd
000001e0: 178d 633c 6a8e 7bbd 5096 893b ccb5 32bd
000001f0: 575f 683c 80e1 683a 3fb1 663c f1bd 10bc
00000200: fa45 833d 6746 a8bd 0b78 f83d 65b6 113e
00000210: 1145 37bc 61ef a8bc de59 893d e1c0 8a3d
00000220: fbf9 7d3d 87ff 4fbd c11d 7e3d 488f c23d
00000230: f3e3 773d d40a 893d 6910 133d 88d2 563d
00000240: 31cb 883d 7967 d73d 7208 ed3d 52c0 99bd
00000250: f6fa 473c e012 823d 2340 f13c a98c f13d
00000260: b722 78bc de63 b63d a5ac a83c 6f54 4d3d
00000270: 0d19 193e 5022 883d bd81 c83d ee41 a73d
00000280: 4b4b a53d 7e5c 953d f03f a5bd d49e eabc
00000290: 2a04 273e cdb7 883d a2e4 713c 0d6a c13d
000002a0: 022e d73d 641f 813d 9c16 463d 91ca 033e
000002b0: f03a ac3d 0d14 013e 279b 2fbc df9b 153e
000002c0: 1c86 3d3d e181 303e 0492 873c 7f7a b73d
000002d0: e689 2f3e 124e ebbc e468 b3bc 7734 253d
000002e0: bdb8 c53d 1f74 853d f3ce 423d b2b8 213e
000002f0: 1cfb e23d 44d5 313e a85b 42bd db31 bd3d
00000300: 0852 923d 9ed3 973d 9914 583d 1662 903d
00000310: 05b6 943c 1078 993d 8ea1 ed3c 2e28 c33d
00000320: e200 d23d 9245 9b3d 46e4 48bc 5b49 dc3d
00000330: c5f8 9e3d 026d b33c 3dd9 bb3d 2a04 473d
00000340: 9af5 b93d aa61 933d b694 f23c fc7c 953d
00000350: 825c 093e 231e ca3d 2a08 8bbd 42a0 94bd
00000360: 663a 0f3c 3a63 303d 148b b83d d151 863d
00000370: 6e8c 443d 96a5 f43d 0470 0abc 66bc 86bb
00000380: e38a 3abd b3ce 463d c84a d73c 662b 343e
00000390: 1d49 cd3d d8ee 003e 1493 5e3d 18ec bc3c
000003a0: bc09 a33d f06f 2d3d 2df7 c43d be68 253c
000003b0: cf44 cabb 98a6 893d 628f 943a 86c9 183e
000003c0: 3292 0a3e ba24 fe3d f311 793d 0bc7 fe3c
000003d0: 1da1 503d c729 ac3d cc50 2d3e c6f9 a43d
000003e0: 4696 9cbd baeb 2e3e d7f8 053e 3159 0c3e
000003f0: 0d6a 043e 57e4 cc3d f47a a7bc c28e 903d
0.054107543 -0.01614886 -0.050385162 -0.017048841 -0.018355975 -0.017289564 0.08395617 0.031051416
0.12141996 -0.026464995 0.045205876 0.039735377 -0.050936244 0.12460252 0.060812622 0.10500266
0.008569504 -0.107545234 -0.07257259 0.03457166 0.011645641 0.042143412 0.093686745 0.029013844
-0.062453378 0.17004827 0.03740123 0.11812083 0.012283862 -0.09258678 0.018583728 0.031093322
0.11358993 0.11647751 0.005519995 -0.052750353 0.03332177 0.09945862 0.14281562 -0.045896765
0.008500639 0.11908848 0.13681027 -0.038131 0.017294493 -0.048435695 -0.05502273 -0.06736922
-0.086536646 0.029435566 -0.07571123 -0.014367139 -0.012243941 -0.07052611 -0.035565704 -0.035352092
-0.026635583 0.013453633 0.106068164 0.014633775 0.028697759 0.049845185 -0.056305166 -0.1346151
0.030938568 -0.06169742 0.18170097 0.061648674 0.100711666 0.114687145 -0.013425285 0.012933255
-0.056248598 -0.11470284 -0.008424038 0.01194775 0.022458969 0.13886201 0.08328469 0.0037496132
-0.040913247 0.15783577 0.11655893 -0.1238401 -0.034724403 0.039048318 0.077908754 -0.093298905
-0.021847734 -0.07858901 -0.030758336 0.03149126 0.026595578 0.052848533 0.015233041 -0.026105896
0.01772254 0.1602714 0.1864484 -0.0005516 0.01505772 -0.0040358924 0.15262784 0.059826344
-0.07609411 0.15460202 -0.07628327 -0.10946351 -0.07622632 0.11480678 -0.0625134 0.044815674
-0.07827582 -0.049206868 0.0048535066 0.11190252 0.17976208 0.14550316 -0.06551423 -0.07047151
0.013888619 -0.061415114 0.004198827 -0.043630406 0.014182887 0.00088837 0.014080345 -0.008834348
0.06409831 -0.08216553 0.121322714 0.14229734 -0.0111859 -0.020621957 0.06706594 0.0677507
0.062005978 -0.0507808 0.062040094 0.09499985 0.060520124 0.066915184 0.03590432 0.052446872
0.06679381 0.10517783 0.115738764 -0.07507385 0.01220583 0.06351256 0.029449528 0.11794407
-0.015144995 0.08905767 0.020590136 0.05012935 0.14950962 0.066471696 0.097903706 0.08166872
0.080710016 0.07293032 -0.08068836 -0.028640188 0.16310182 0.06675682 0.014763983 0.09444056
0.10506822 0.063048154 0.048361406 0.12870242 0.08409679 0.12605305 -0.010718144 0.14610241
0.046270475 0.17237045 0.016549118 0.08958911 0.17142448 -0.02872375 -0.021900602 0.040333237
0.09654377 0.06516289 0.047560643 0.15793112 0.110830516 0.1736651 -0.04745069 0.09238025
0.071445525 0.0741341 0.05275402 0.070499584 0.0181532 0.07493603 0.0290077 0.09529148
0.10254075 0.07581629 -0.012261456 0.10756179 0.07762293 0.021902565 0.09172294 0.048587956
0.09080048 0.07196362 0.029611927 0.072992295 0.13414195 0.098690294 -0.067886665 -0.07257129
0.008741951 0.04306338 0.09010902 0.06558574 0.047985487 0.119456455 -0.008449558 -0.0041118143
-0.04554261 0.048536967 0.026280776 0.1759468 0.10023711 0.12591112 0.054339483 0.023061797
0.07960841 0.04234308 0.096174575 0.010095773 -0.0061727534 0.06721228 0.0011334235 0.14920625
0.13532332 0.12409349 0.060808133 0.03110077 0.0509349 0.08406406 0.16925353 0.08055453
-0.0764585 0.1708211 0.13083206 0.13705899 0.1293108 0.1000449 -0.02044437 0.07058479

network.9.bias f4 [2]
00000000: b762 52bd e3bf 583e
-0.051363673 0.21166949
