src/results/best_model.pth (torch, 302946 bytes, 10 tensors)

network.0.weight f4 [64, 3]
0.38280284 -0.05518712 0.41195473 -0.13770564 0.13308077 0.3120779 0.32431468 0.28825742
-0.5428858 0.38105267 0.31851164 0.15296225 0.084154814 -0.34112298 0.22063188 -0.05978198
-0.1130426 -0.1818772 0.03808219 -0.07426225 -0.36057603 0.013150491 -0.07378487 -0.036486126
0.015921751 -0.40446338 -0.2731136 0.56955206 -0.24155311 -0.48149538 0.12244627 0.5954377
0.51337695 -0.5306496 0.015164876 -0.22508655 -0.014126008 0.32788005 -0.25478482 -0.30950242
0.18003818 -0.5151336 0.5170942 -0.5069829 0.3858183 -0.27681527 -0.5283963 -0.36574835
-0.31632805 -0.5255265 -0.4244002 -0.33121303 -0.31897247 0.5330249 -0.034768984 0.012755691
0.26686773 -0.43486726 -0.5005833 -0.2698541 -0.32441974 -0.23866561 0.31233755 -0.31355995
-0.2251648 0.32668814 -0.33422822 0.33825022 0.35233033 -0.29011798 0.14767697 -0.417498
-0.022329554 0.32556656 -0.48124734 0.6262926 -0.093176715 -0.5211552 0.28338555 0.67542136
-0.5992077 -0.15420872 0.10966671 -0.48923522 -0.28771192 0.24348906 0.6367625 0.38306713
0.39158458 0.08019506 0.11176668 0.20422606 0.594706 0.13413548 -0.5229604 -0.108937435
0.16494429 0.5295374 0.22284682 -0.5315825 0.5350265 0.17707792 0.20843948 -0.20087232
0.35081834 0.13834475 0.6182522 -0.47070852 -0.022118257 -0.29935986 0.2751305 0.3310998
-0.46083528 -0.1421178 0.37946272 -0.3429624 0.59439975 -0.43513504 0.542804 0.47955143
0.49807796 -0.55106795 0.7215352 0.095297225 0.075245254 0.69327784 0.56315345 0.10557404
0.047679063 0.61723495 0.4522298 0.028510028 0.44179064 -0.42174637 0.4780712 -0.2309843
0.64303297 -0.4747513 -0.4453852 0.27634457 -0.43186456 -0.2559082 -0.25707734 -0.42276293
0.2013928 0.18694547 -0.16068493 -0.47744554 0.47393376 0.31471205 0.35787013 -0.02533713
0.08547969 0.51343006 -0.535709 0.6111325 -0.39493152 0.20822829 -0.53465605 0.48835295
-0.4483384 0.3512422 -0.5325911 0.33990452 0.17198126 0.006074963 0.4721186 -0.008936426
0.49614912 0.58702433 0.07933497 0.39458525 0.17426269 0.528256 0.61672086 -0.21309744
-0.36658844 0.018058363 0.6131851 -0.49117562 -0.18574794 -0.08544932 0.7001423 -0.48905125
-0.3066209 0.20548931 0.2775366 0.45820716 -0.49240443 -0.04360571 -0.46499336 -0.090742104
00000000: bcfe c33e e40b 62bd bbeb d23e b502 0dbe
00000010: 5346 083e adc8 9f3e 930c a63e 7a96 933e
00000020: 90fa 0abf 5619 c33e f513 a33e 23a2 1c3e
00000030: 5c59 ac3d aca7 aebe 53ed 613e f3dd 74bd
00000040: e182 e7bd 043e 3abe 12fc 1b3d ce16 98bd
00000050: 6c9d b8be 2875 573c 861c 97bd 7a72 15bd
00000060: 556e 823c d315 cfbe 8cd5 8bbe 2ace 113f
00000070: b359 77be 9086 f6be 1cc5 fa3d 9b6e 183f
00000080: ac6c 033f a7d8 07bf 1a76 783c 177d 66be
00000090: c670 67bc e5df a73e 2873 82be 1a77 9ebe
000000a0: ee5b 383e ccdf 03bf 4960 043f a2c9 01bf
000000b0: fa89 c53e bbba 8dbe fb44 07bf 5e43 bbbe
000000c0: c0f5 a1be e888 06bf fc4a d9be c194 a9be
000000d0: 5c50 a3be 5274 083f ec69 0ebd 3ffd 503c
000000e0: e3a2 883e eca6 debe 3a26 00bf 512a 8abe
000000f0: 581a a6be c264 74be b5ea 9f3e ee8a a0be
00000100: 9a91 66be ab43 a73e f61f abbe 222f ad3e
00000110: a464 b43e 588a 94be a238 173e 4cc2 d5be
00000120: 78ec b6bc a9b0 a63e 0d66 f6be b654 203f
00000130: 6fd3 bebd 6d6a 05bf e917 913e 6ae8 2c3f
00000140: ad65 19bf e4e8 1dbe f198 e03d 0a7d fabe
00000150: fa4e 93be 3255 793e de02 233f 6021 c43e
00000160: c67d c83e 4f3d a43d eee5 e43d a320 513e
00000170: a73e 183f d05a 093e bce0 05bf 971a dfbd
00000180: 28e7 283e c38f 073f f531 643e ca15 08bf
00000190: 7ff7 083f ea53 353e 2971 553e 79b1 4dbe
000001a0: 769e b33e 3faa 0d3e c745 1e3f b500 f1be
000001b0: 5931 b5bc b245 99be e8dd 8c3e ea85 a93e
000001c0: 9af2 ebbe 5487 11be f048 c23e c598 afbe
000001d0: 952a 183f 05ca debe 34f5 0a3f c487 f53e
000001e0: 1304 ff3e ca12 0dbf 88b6 383f 312b c33d
000001f0: 2f1a 9a3d a87a 313f d32a 103f 3437 d83d
00000200: 1f4b 433d 1c03 1e3f aa8a e73e dd8d e93c
00000210: 6232 e23e 24ef d7be c0c5 f43e 2687 6cbe
00000220: cf9d 243f 9a12 f3be 8709 e4be 097d 8d3e
00000230: 5a1d ddbe 6606 83be a49f 83be 6274 d8be
00000240: ea39 4e3e a26e 3f3e 978a 24be be73 f4be
00000250: 72a7 f23e f021 a13e c13a b73e d08f cfbc
00000260: fa0f af3d 2770 033f 3a24 09bf 2e73 1c3f
00000270: 7734 cabe cc39 553e 38df 08bf 6609 fa3e
00000280: 9c8c e5be 05d6 b33e e457 08bf f707 ae3e
00000290: db1b 303e 7c10 c73b 87b9 f13e 166a 12bc
000002a0: 4207 fe3e 3a47 163f 5f7a a23d 1407 ca3e
000002b0: eb71 323e c93b 073f 6be1 1d3f 3736 5abe
000002c0: 7bb1 bbbe 22ef 933c b3f9 1c3f 5f7b fbbe
000002d0: b534 3ebe 0e00 afbd 873c 333f ed64 fabe
000002e0: 6afd 9cbe ca6b 523e 4719 8e3e 219a ea3e
000002f0: 6f1c fcbe e79b 32bd 9c13 eebe ffd6 b9bd

network.0.bias f4 [64]
0.16204903 -0.022979151 0.19092602 -0.4607871 0.016358517 0.11509133 0.20071715 -0.0843021
-0.23484924 0.3095095 0.37214953 -0.22036229 -0.4086868 0.04472206 0.08392707 0.5768747
0.43334582 -0.0493406 0.15977907 -0.3364295 -0.22912826 -0.19046421 -0.09103451 -0.41336322
0.108962096 -0.17442438 0.6118441 -0.49505186 0.4232082 -0.20036969 0.40663317 0.48959854
-0.5171447 -0.059862204 0.094983235 0.2498952 0.056496374 -0.26691127 -0.24941246 0.20042244
0.52023536 0.55761886 -0.29590723 -0.33578518 -0.24889795 0.40639728 -0.025811564 -0.4795327
0.10581368 0.0011628434 0.3514278 0.20220546 0.045628976 -0.15217495 0.027575148 0.12601951
-0.1678532 -0.37068728 0.25659156 0.015438854 0.38328013 -0.10110737 -0.24030526 -0.49386182
00000000: 2ef0 253e c63e bcbc 1c82 433e 49ec ebbe
00000010: 4c02 863c 01b5 eb3d cc88 4d3e 94a6 acbd
00000020: 527c 70be 0778 9e3e 628a be3e a7a6 61be
00000030: 653f d1be 7b2e 373d f5e1 ab3d 0fae 133f
00000040: 81df dd3e 5e19 4abd 209d 233e 7d40 acbe
00000050: 99a0 6abe 0d09 43be 4d70 babd 58a4 d3be
00000060: 8527 df3d 4e9c 32be d1a1 1c3f 7077 fdbe
00000070: bfae d83e b62d 4dbe 3932 d03e a9ac fa3e
00000080: 9863 04bf 1232 75bd 9286 c23d 87e4 7f3e
00000090: be68 673d 98a8 88be fb65 7fbe 8a3b 4d3e
000000a0: 252e 053f 1cc0 0e3f 2781 97be 09ec abbe
000000b0: 1bdf 7ebe 4e13 d03e c672 d3bc 4f85 f5be
000000c0: d8b4 d83d 8d6a 983a 58ee b33e f30e 4f3e
000000d0: 73e5 3a3d c0d3 1bbe 47e5 e13c 420b 013e
000000e0: b6e1 2bbe b9ca bdbe f85f 833e 3ff3 7c3c
000000f0: 4b3d c43e 6111 cfbd 9512 76be 75db fcbe

network.2.weight f4 [128, 64]
-0.005227387 -0.084775314 0.08644599 0.051041067 -0.0995473 0.02931486 0.06804128 -0.09512755
0.060733795 -0.051027596 0.11747417 -0.07041325 -0.014333785 -0.07315616 -0.12177266 0.0025103986
-0.11368483 0.036360323 0.10611415 -0.11578408 0.058363304 -0.018792585 0.046942994 -0.041274488
-0.0054867417 0.016749322 -0.05519925 -0.11236304 -0.12157522 0.033235744 0.02565132 0.00047561526
-0.025139242 0.031551167 -0.049996078 0.09295063 -0.1054014 0.057686776 -0.06674792 -0.031157494
0.11706306 -0.11862382 0.023419157 -0.105179176 0.09469098 -0.0019822419 -0.061358064 0.0461002
0.028241515 0.10737389 0.08151725 -0.03399001 -0.023345634 -0.07998249 0.109430045 -0.014089167
-0.12243056 -0.10874918 -0.056103572 -0.11532354 0.04618931 0.0833693 0.09849702 -0.033609837
0.049158037 0.06463332 0.024690794 -0.014411076 0.058035463 0.115523756 -0.088229045 0.003044635
0.06563847 0.11342329 -0.12931558 0.008006349 0.015678614 -0.03529626 -0.045579452 -0.06446718
-0.024647444 -0.029536933 -0.03463672 0.00028845668 0.018539742 0.06117265 0.075229466 0.10660075
-0.10910395 -0.018380448 0.0015369594 0.030762807 0.08710194 -0.04832023 0.06091278 0.10270174
-0.06414956 0.05359767 0.020374002 0.045087017 -0.057898205 0.118021935 0.0793567 0.085028775
-0.06099914 -0.13264854 0.053618405 -0.06861828 0.03982132 -0.016692773 0.062405393 -0.08181919
-0.051719174 -0.11548366 -0.011584523 -0.06500312 -0.11086148 -0.10335312 -0.11108324 0.08222216
0.02965334 0.1017054 -0.05492142 -0.009233946 -0.09147773 -0.074856386 -0.113341615 -0.007842779
-0.12494484 -0.04939362 -0.04096615 0.00335724 0.110492334 -0.04241486 0.040412173 -0.06878683
0.11404623 -0.092295416 0.08481187 0.10285683 0.03842972 -0.066242054 0.024869345 -0.12062688
0.036843196 0.069076926 -0.07838028 0.065651074 0.014053613 -0.008329734 0.022812046 0.09269193
-0.021219427 -0.065911666 -0.0513502 0.018256783 0.0027340923 0.062912196 0.07300653 -0.008865908
-0.039808095 -0.039631676 0.07595699 -0.07696199 0.03412744 -0.09821889 -0.11637653 -0.019463724
-0.04983394 -0.019385738 -0.07129863 -0.107455514 0.089180015 -0.021510398 -0.020373568 -0.008915693
-0.08283953 -0.13256505 -0.016496088 0.002579309 -0.11327857 -0.01919164 0.050498992 0.10100795
0.013738076 0.027685888 0.057233077 0.05867134 -0.00093741395 0.0053026974 0.08959294 -5.811453e-05
-0.0744265 -0.023868635 0.0902352 -0.007843763 -0.110685185 -0.005077556 0.08305529 0.06840341
-0.05033739 -0.1172103 -0.09890716 -0.06423248 -0.0523348 0.10858919 -0.020956561 0.08993073
0.020079136 -0.11680353 0.06647816 -0.016415134 0.097602114 0.10581908 -0.059070423 -0.02638115
0.014977604 -0.118428096 -0.0971373 0.025159538 0.061947033 -0.018868849 -0.09414551 -0.01087226
-0.078332156 0.009994283 -0.045703232 -0.10877438 0.11964269 0.07282148 0.040565997 0.1145401
-0.11486739 0.010283947 0.0957938 0.059566215 -0.024557456 0.06656827 -0.06077178 -0.041577175
-0.11119127 0.12473951 0.08645204 -0.048333988 0.066414416 -0.104193404 0.1118253 -0.10978332
0.037640274 0.06908591 0.0073307008 -0.10651682 0.022826001 0.08120324 -0.07179581 -0.07908696
00000000: 804a abbb ae9e adbd 980a b13d 7010 513d
00000010: 74df cbbd b825 f03c 3a59 8b3d 3cd2 c2bd
00000020: 00c4 783d 5002 51bd 4c96 f03d d234 90bd
00000030: 40d8 6abc e6d2 95bd f263 f9bd 8085 243b
00000040: 98d3 e8bd 90ee 143d 6052 d93d 3420 edbd
00000050: 5c0e 6f3d e8f2 99bc 4c47 403d 700f 29bd
00000060: 20ca b3bb e035 893c 9c18 62bd 981e e6bd
00000070: 6efc f8bd 3422 083d b822 d23c 005c f939
00000080: d0f0 cdbc cc3b 013d b0c8 4cbd e65c be3d
00000090: b0dc d7bd f848 6c3d 22b3 88bd 003e ffbc
000000a0: c2be ef3d 0cf1 f2bd 88d9 bf3c 2e68 d7bd
000000b0: 58ed c13d 80e8 01bb 9852 7bbd 90d3 3c3d
000000c0: c05a e73c d8e6 db3d 84f2 a63d 1c39 0bbd
000000d0: 583f bfbc dccd a3bd dc1c e03d 40d6 66bc
000000e0: e0bc fabd e4b7 debd dccc 65bd c02e ecbd
000000f0: 0031 3d3d 86bd aa3d ceb8 c93d 78aa 09bd
00000100: f059 493d 795e 843d 5944 ca3c 6f1c 6cbc
00000110: 98b6 6d3d b897 ec3d 6eb1 b4bd 8088 473b
00000120: 766d 863d 784a e83d 4e6b 04be 102d 033c
00000130: 7070 803c d092 10bd 85b1 3abd 5e07 84bd
00000140: 70e9 c9bc 70f7 f1bc 3cdf 0dbd 003c 9739
00000150: a8e0 973c 2c90 7a3d e811 9a3d 7e51 da3d
00000160: e471 dfbd 9892 96bc cd73 c93a 4802 fc3c
00000170: 8062 b23d 6feb 45bd ae7f 793d 4a55 d23d
00000180: d860 83bd 3b89 5b3d 61e7 a63c 2aad 383d
00000190: ab26 6dbd 7cb5 f13d c485 a23d 9123 ae3d
000001a0: 3cda 79bd 05d5 07be f99e 5b3d be87 8cbd
000001b0: ae1b 233d 48bf 88bc cc9c 7f3d d290 a7bd
000001c0: 7cd7 53bd b282 ecbd 03cd 3dbc 5b20 85bd
000001d0: 580b e3bd cdaa d3bd 9c7f e3bd 1864 a83d
000001e0: 90eb f23c ec4a d03d 48f5 60bd fa49 17bc
000001f0: ad58 bbbd 4e4e 99bd a61f e8bd 007f 00bc
00000200: 15e3 ffbd f750 4abd 1fcc 27bd 2405 5c3b
00000210: ce49 e23d 34bb 2dbd 3c87 253d 1ce0 8cbd
00000220: 1291 e93d 6105 bdbd d8b1 ad3d 9aa6 d23d
00000230: 7b68 1d3d eaa9 87bd ccba cb3c 3a0b f7bd
00000240: e4e8 163d 3478 8d3d d785 a0bd 1274 863d
00000250: 2041 663c 7079 08bc 54e0 ba3c 44d5 bd3d
00000260: 5dd4 adbc b2fc 86bd 9654 52bd 408f 953c
00000270: 752e 333b 1cd8 803d 7384 953d 5042 11bc
00000280: d00d 23bd d354 22bd 578f 9b3d 3f9e 9dbd
00000290: 37c9 0b3d fc26 c9bd d156 eebd 6372 9fbc
000002a0: ac1e 4cbd d7ce 9ebc 0405 92bd a311 dcbd
000002b0: 03a4 b63d 9336 b0bc 78e6 a6bc 2013 12bc
000002c0: c6a7 a9bd 22bf 07be ce22 87bc a009 293b
000002d0: 98fe e7bd c937 9dbc 08d8 4e3d 42dd ce3d
000002e0: ab15 613c 84cd e23c 3b6d 6a3d 5c51 703d
000002f0: c9bc 75ba 40c2 ad3b 817c b73d 00c0 73b8
00000300: ec6c 98bd 2888 c3bc 3ccd b83d 2083 00bc
00000310: eaae e2bd a061 a6bb e418 aa3d 1617 8c3d
00000320: 942e 4ebd f40b f0bd d68f cabd 528c 83bd
00000330: 045d 56bd 0264 de3d 18ad abbc 9a2d b83d
00000340: 007d a43c b036 efbd b425 883d 0879 86bc
00000350: 9ee3 c73d acb7 d83d d4f3 71bd 481d d8bc
00000360: a064 753c 6e8a f2bd ecef c6bd 601b ce3c
00000370: 2cbc 7d3d d892 9abc 5ccf c0bd 9021 32bc
00000380: 9c6c a0bd 10bf 233c 5033 3bbd 1ac5 debd
00000390: 3a07 f53d 6e23 953d 8828 263d 0094 ea3d
000003a0: 983f ebbd 007e 283c 8a2f c43d b4fb 733d
000003b0: b82c c9bc f254 883d d4eb 78bd d44c 2abd
000003c0: 40b8 e3bd 6e77 ff3d c40d b13d dcf9 45bd
000003d0: 4804 883d 5a63 d5bd aa04 e53d 14d6 e0bd
000003e0: b02c 1a3d ea7c 8d3d 6036 f03b 7e25 dabd
000003f0: 98fd ba3c e24d a63d ae09 93bd 58f8 a1bd

network.2.bias f4 [128]
-0.12080145 -0.081564896 -0.026984768 -0.11008559 0.075913854 -0.022635082 -0.06288714 -0.11043811
0.102819696 0.068692386 0.056511596 0.027116599 -0.021703435 -0.10456447 -0.09885745 -0.05872508
-0.079058625 0.04940832 -0.019310907 -0.09445791 -0.0250599 -0.09310802 0.09655496 -0.044355694
0.024569795 -0.105609834 0.051365703 0.07144457 0.119011834 0.16372497 0.07743955 -0.08545956
-0.08163901 0.08535716 0.021205211 0.107821465 0.08897066 -0.057037905 -0.11942047 -0.1182369
0.00716359 -0.04058228 0.014051406 0.08798399 0.104162686 0.06450193 -0.06502462 0.15590356
-0.00014442205 0.056346882 0.038095266 0.14674547 0.13696302 0.043837067 0.16142075 0.2004521
-0.087951854 -0.08517577 0.008925087 -0.032670718 0.0063547934 0.12420463 -0.09032917 0.100832134
-0.017050907 0.0022364557 0.08692399 0.017643154 0.11742112 -0.00429748 -0.08286312 0.03336139
-0.0162823 0.019259803 0.096556686 0.088884786 -0.0904531 0.045640286 0.20021546 0.034084294
0.04315161 -0.038805753 -0.13668095 0.079649165 0.09591274 -0.10315536 -0.021372898 -0.015556916
0.12659864 0.004025575 0.19882971 -0.06907578 -0.08031938 -0.075175 0.03665471 0.14245392
0.15934634 0.138734 0.047766447 0.081593625 -0.004101321 0.05339918 0.049524084 -0.0050820094
0.051862814 -0.007524929 -0.004825458 -0.03587325 0.007154351 0.08800645 -0.0009221061 0.055995554
-0.033473864 -0.004292324 0.064091146 0.021271965 -0.10301149 -0.0326418 -0.002562307 0.003422173
-0.030603627 0.09440814 -0.116251886 0.06046096 0.11792396 -0.053027764 0.12958446 0.10339111
00000000: c066 f7bd 7f0b a7bd 290f ddbc 8e74 e1bd
00000010: b978 9b3d 356d b9bc f9ca 80bd 602d e2bd
00000020: 2293 d23d 98ae 8c3d b478 673d a123 de3c
00000030: 67cb b1bc e625 d6bd c675 cabd b689 70bd
00000040: 7de9 a1bd 6160 4a3d e831 9ebc 2673 c1bd
00000050: 6b4a cdbc 6baf bebd 9bbe c53d 51ae 35bd
00000060: 9846 c93c f849 d8bd d864 523d 8851 923d
00000070: 7abc f33d 85a7 273e a098 9e3d 6c05 afbd
00000080: 5a32 a7bd bccf ae3d 8db6 ad3c 80d1 dc3d
00000090: 4036 b63d 94a0 69bd b892 f4bd 3026 f2bd
000000a0: 8cbc ea3b 9b39 26bd de37 663c f330 b43d
000000b0: 3f53 d53d 9619 843d a12b 85bd 2fa5 1f3e
000000c0: 0070 17b9 fdcb 663d c809 1c3d 7244 163e
000000d0: 0940 0c3e 7f8e 333d 7b4b 253e 5143 4d3e
000000e0: 1a20 b4bd a270 aebd 873a 123c bbd1 05bd
000000f0: df3b d03b ff5e fe3d 80fe b8bd 1481 ce3d
00000100: 58ae 8bbc 8091 123b 3405 b23d 6088 903c
00000110: 7c7a f03d e0d1 8cbb 24b4 a9bd f4a5 083d
00000120: 7562 85bc bcc6 9d3c 83bf c53d 3a09 b63d
00000130: 7a3f b9bd 4ff1 3a3d 4805 4d3e f99b 0b3d
00000140: bebf 303d c8f2 1ebd 17f6 0bbe 1a1f a33d
00000150: e66d c43d 1e43 d3bd 3716 afbc 6fe2 7ebc
00000160: 13a3 013e f8e8 833b 049a 4b3e 9a77 8dbd
00000170: 7d7e a4bd 5af5 99bd 4023 163d 71df 113e
00000180: b02b 233e 4910 0e3e c0a6 433d 8f1a a73d
00000190: 6064 86bb 19b9 5a3d c4d9 4a3d fc86 a6bb
000001a0: 1a6e 543d ae93 f6bb e01e 9ebb d4ef 12bd
000001b0: 0c6f ea3b ba3c b43d 7eb9 71ba 985b 653d
000001c0: e41b 09bd a0a6 8cbb 3842 833d 8b42 ae3c
000001d0: b0f7 d2bd 68b3 05bd 61ec 27bb 8946 603b
000001e0: 75b4 fabc 0e59 c13d 7815 eebd e9a5 773d
000001f0: 1e82 f13d a433 59bd cab1 043e b8be d33d

network.5.weight f4 [256, 128]
0.011381377 0.032854244 0.06556985 0.034530934 -0.12045477 -0.007969482 0.090910025 0.08335637
-0.07545774 0.11044807 0.028984945 -0.061690826 0.052695148 0.0076828436 0.16684195 0.032045707
0.0025717823 0.12634508 -0.062496472 0.07536354 -0.07150319 -0.07500491 0.015575867 -0.03431626
0.023408474 -0.0114588635 -0.11860958 0.068616785 -0.00085670844 -0.014815654 -0.040414114 -0.044557985
-0.08762821 -0.11124004 0.13966197 -0.005163463 -0.081454955 -0.025576856 -0.0010661677 -0.04346554
-0.05343771 0.0958667 0.100319035 0.016547337 -0.025546292 0.03213508 0.022455439 0.14913502
0.04617534 -0.09163437 0.0414806 -0.015124829 0.09003568 0.08733148 -0.14967015 -0.16288425
-0.07729178 -0.0023643961 0.051368464 -0.008926238 0.09496806 -0.019277701 -0.06378721 0.054980922
-0.0013345483 0.017464178 0.02185959 -0.04314738 0.040437296 0.0254332 -0.07932102 0.093655795
0.034192644 0.028433101 -0.03853825 -0.11290646 0.03564495 0.040938478 -0.14575185 -0.053794857
0.09734727 -0.12300932 -0.039753843 -0.0023991226 0.025041223 0.013763643 -0.023778398 0.10009511
-0.0043130512 0.13550332 -0.083631724 0.01436059 0.13914546 -0.08191874 -0.02145518 -0.059615877
-0.014382559 -0.017039103 0.08819532 0.073445015 0.014112229 0.017136754 0.0749837 -0.02239617
-0.15058768 0.04934564 0.003986744 -0.018051252 -0.0113087315 0.044877235 0.003959436 0.06444331
0.06172386 -0.024504704 0.13184191 -0.054371394 -0.08188765 0.05141975 -0.01233301 0.1069186
-0.08835697 0.09758095 0.08169007 0.15798002 -0.028082728 0.028336633 0.050545163 -0.01665792
-0.035142377 -0.018140277 -0.04785235 0.0013561065 0.08832514 0.17777517 -0.123399116 0.035191637
0.16588286 0.023355218 0.042992923 0.10551167 -0.1686012 0.08797922 -0.12441353 -0.023524402
-0.10367245 -0.02156293 -0.010261546 0.04042812 0.14782897 0.056944743 -0.044886656 0.0024562436
-0.04453589 -0.05124732 0.047410335 0.02216626 -0.08451783 0.20308454 0.17923926 -0.063977316
0.043119177 0.12377404 -0.055631883 0.064250045 -0.036644958 0.0426671 -0.021570314 -0.01105987
0.062057998 0.026801495 -0.05144705 0.00393587 0.19496286 -0.11193266 0.03269792 0.040763613
0.01814011 0.2055586 -0.0006409482 0.14145522 0.009430087 -0.16358845 0.16276807 0.090536535
0.019090382 0.03451794 0.047462955 -0.029548656 0.107049555 0.124804854 -0.059868786 0.01436864
0.018785926 0.04570833 -0.023764469 -0.07589084 0.052670643 -0.05129181 0.02277938 -0.010800548
0.13214627 0.07436359 0.04776847 0.18540978 0.009482219 0.13954589 0.12474698 0.1594004
0.05079956 0.20131125 0.05000164 -0.02200615 -0.097271495 -0.075284146 0.1709372 0.15217486
0.15448336 -0.09070505 0.12629533 0.021077512 -0.06499832 0.02643914 0.07820767 0.16485596
0.12487594 0.08129 -0.066407226 0.06594735 -0.024292642 -0.05420123 -0.016552826 -0.07165466
0.08422122 0.020427387 -0.040408373 0.015829608 -0.07957256 -0.06252286 0.16712016 -0.027872205
-0.069698855 -0.011156365 -0.06048779 0.019239541 -0.07714873 0.086325556 0.20636268 0.02630271
0.11376718 -0.005944163 0.08284844 -0.121974066 0.07310181 -0.0043408936 0.10492751 0.02259109
00000000: f478 3a3c 2c92 063d 7c49 863d 4f70 0d3d
00000010: feb0 f6bd 6e92 02bc 092f ba3d bfb6 aa3d
00000020: 9689 9abd 9932 e23d d671 ed3c 85af 7cbd
00000030: ded6 573d 5dc0 fb3b 9ed8 2a3e 5c42 033d
00000040: 598b 283b 9b60 013e 4dfc 7fbd 3358 9a3d
00000050: 4470 92bd 2d9c 99bd ec31 7f3c 358f 0cbd
00000060: 21c3 bf3c f5bd 3bbc 94e9 f2bd f586 8c3d
00000070: bb94 60ba 5bbd 72bc 4589 25bd 6f82 36bd
00000080: 6b76 b3bd d1d1 e3bd 8c03 0f3e 4432 a9bb
00000090: dbd1 a6bd 8e86 d1bc a7be 8bba ec08 32bd
000000a0: 80e1 5abd c355 c43d 1174 cd3d 488e 873c
000000b0: 7546 d1bc 13a0 033d 78f4 b73c dab6 183e
000000c0: 5a22 3d3d cdaa bbbd 90e7 293d 21ce 77bc
000000d0: a064 b83d d9da b23d 2243 19be 21cb 26be
000000e0: 274b 9ebd fcf3 1abb bd67 523d 5b3f 12bc
000000f0: 9d7e c23d 45ec 9dbc dea2 82bd ad33 613d
00000100: 03ec aeba 0911 8f3c e212 b33c 4fbb 30bd
00000110: 94a1 253d 4959 d03c 0f73 a2bd 9cce bf3d
00000120: 960d 0c3d 89ec e83c 49da 1dbd 813b e7bd
00000130: 7000 123d 1baf 273d f93f 15be ff57 5cbd
00000140: 015e c73d 4fec fbbd edd4 22bd 993a 1dbb
00000150: 4023 cd3c e780 613c eaca c2bc aafe cc3d
00000160: 7f54 8dbb 62c1 0a3e 1c47 abbd ae48 6b3c
00000170: 267c 0e3e 03c5 a7bd c6c2 afbc c72f 74bd
00000180: d3a4 6bbc 9795 8bbc bf9f b43d 576a 963d
00000190: fb36 673c 6162 8c3c 0e91 993d 2c78 b7bc
000001a0: a833 1abe a71e 4a3d 3ca3 823b 38e0 93bc
000001b0: 4248 39bc 31d1 373d 28be 813b dbfa 833d
000001c0: 29d2 7c3d 17be c8bc 9101 073e 8ab4 5ebd
000001d0: b6b4 a7bd 849d 523d 6510 4abc 24f8 da3d
000001e0: 80f4 b4bd 85d8 c73d 204d a73d 84c5 213e
000001f0: c00d e6bc 3a22 e83c 7208 4f3d 3176 88bc
00000200: 74f1 0fbd eb9a 94bc d300 44bd 62bf b13a
00000210: d0e3 b43d b20a 363e adb8 fcbd 1b25 103d
00000220: 32dd 293e 7153 bf3c 5919 303d 8116 d83d
00000230: cba5 2cbe 732e b43d 85cc febd 3fb6 c0bc
00000240: 3952 d4bd bea4 b0bc 0b20 28bc f597 253d
00000250: 7a60 173e e43e 693d 12db 37bd eef8 203b
00000260: 446b 36bd b6e8 51bd 5731 423d 0496 b53c
00000270: af17 adbd 65f5 4f3e 7f8a 373e 8a06 83bd
00000280: bc9d 303d 3e7d fd3d 42de 63bd 8795 833d
00000290: 0619 16bd b2c3 2e3d 3ab4 b0bc 7534 35bc
000002a0: 8730 7e3d cf8e db3c 24ba 52bd 78f8 803b
000002b0: 58a4 473e f33c e5bd 41ee 053d bff7 263d
000002c0: 919a 943c f47d 523e 4e05 28ba a3d9 103e
000002d0: a780 1a3c bb83 27be acac 263e 386b b93d
000002e0: 6f63 9c3c af62 0d3d 8468 423d 0610 f2bc
000002f0: cc3c db3d b099 ff3d f938 75bd 726a 6b3c
00000300: f1e4 993c a838 3b3d b4ad c2bc a86c 9bbd
00000310: 2cbd 573d 5c17 52bd d39b ba3c c8f4 30bc
00000320: 5a51 073e f04b 983d dfa8 433d 10dc 3d3e
00000330: 4f5b 1b3c 1ee5 0e3e 587b ff3d dc39 233e
00000340: 3313 503d 8924 4e3e 85ce 4c3d 3e46 b4bc
00000350: 4736 c7bd 932e 9abd 290a 2f3e bad3 1b3e
00000360: e330 1e3e 92c3 b9bd 9053 013e bfaa ac3c
00000370: d71d 85bd e596 d83c 582b a03d 00d0 283e
00000380: f5be ff3d 5f7b a63d 8300 88bd 670f 873d
00000390: 5d01 c7bc 1c02 5ebd cb99 87bc aebf 92bd
000003a0: 2d7c ac3d 5657 a73c 4083 25bd 18ad 813c
000003b0: f0f6 a2bd fc0b 80bd 8c21 2b3e 4054 e4bc
000003c0: 46be 8ebd 30c9 36bc 0bc2 77bd 3e9c 9d3c
000003d0: 2700 9ebd 74cb b03d bd50 533e c878 d73c
000003e0: c4fe e83d 41c7 c2bb 71ac a93d 8acd f9bd
000003f0: 67b6 953d 0e3e 8ebb 3ce4 d63d f310 b93c

network.5.bias f4 [256]
0.014923533 0.09174405 0.021960868 0.08678936 0.11843278 0.24265485 0.18845765 0.25092763
0.16531272 0.02684051 0.10989094 0.06520146 0.17214629 0.19393651 0.023849832 0.25052857
0.019936122 0.029543508 0.2635766 0.057845138 0.06187155 0.26611936 0.05972097 0.20730618
0.040604476 0.2793037 0.24033675 0.079270706 0.14158547 0.11317916 -0.002301347 0.074843295
0.097177304 0.01949439 0.018684033 0.19616508 0.1645254 0.2028225 0.14194454 -0.00570689
0.08035949 0.1325059 0.14692579 -0.042296 0.19493678 0.12474077 0.24734817 0.047079623
0.13719401 0.08050359 0.06880141 0.23170686 -0.008493136 0.1913594 0.22994806 0.028734168
-0.08149001 0.27133533 -0.008671359 0.092797376 0.046656273 0.05975496 0.08969245 0.17172605
0.14694105 0.08097488 0.14726268 0.00028706915 0.1417083 -0.027503744 0.15166566 0.050005298
0.16663553 0.17541967 0.16269399 0.17571019 0.12248737 0.119600415 0.07595036 0.19797051
0.051312696 0.10138905 0.13742334 0.21489675 0.118773796 0.053479273 0.3042151 -0.008696671
0.05979901 0.027605673 0.0006998871 -0.09135015 0.16157784 0.09736633 0.17398782 0.0009723272
0.108609535 0.021836128 0.24942076 0.04223517 0.025530422 0.19628313 0.10935574 0.12382086
0.11222371 0.14548068 0.05083365 -0.0021086598 0.215988 0.0006143993 0.0915334 0.12850377
0.092534594 0.15027663 0.2620498 0.20731647 0.17791565 0.05093679 0.044212542 0.054785877
0.14600149 0.10828497 0.14843675 0.020442044 0.12999325 0.18051079 0.15809204 0.18557984
0.130781 0.07957507 0.123904996 0.16800395 0.096113026 0.0316404 0.10466203 0.15026814
-0.12004716 0.14731182 0.111149274 0.12102535 0.1828433 0.25054702 0.11334516 0.21462479
0.16374768 0.19069535 0.14599322 0.058165275 0.17285638 0.0965615 0.13528258 -0.0020031116
0.11808846 0.09866787 0.14000036 0.2173032 0.06193885 0.264085 0.05055209 0.04693445
0.04955011 0.050598517 0.0325457 0.18160792 0.07862856 0.13794965 0.08384111 0.123746485
0.051849782 0.20209382 0.14370883 0.22275707 0.101780295 0.18008366 0.17921044 0.14557073
0.025314763 0.19816494 0.12581477 0.17473155 0.15490174 0.16283019 0.1793611 0.13002439
-0.01903374 0.14695477 0.15392818 0.0321242 0.055033386 0.12191868 0.16119894 0.12081318
0.027716665 0.22015145 -0.06618254 -0.008005388 0.11333941 0.0075531662 0.15202 0.034211956
0.039774466 -0.04862536 0.08610236 0.12780116 0.16810384 0.124523714 0.19983502 0.10826587
0.2260479 0.09666851 0.21208557 0.1203106 0.046193276 0.128775 0.07079631 0.023622654
-0.065431766 0.042559564 0.24516165 0.14060351 0.02208459 0.24280965 0.13535845 0.061280526
0.16774122 0.1438471 0.1344152 0.20547226 0.23020636 0.2254297 0.0042756554 0.13687177
0.12321372 0.08144666 0.24650651 -0.05205475 0.112438604 0.19021973 0.098879114 0.2637202
0.2100684 0.041248925 0.21384199 0.12237687 0.23752737 0.2389022 0.11893703 0.076895505
0.23037718 -0.09409225 0.10408138 0.1714594 0.053625017 0.09117023 0.022725545 0.07727402
00000000: d681 743c 4ee4 bb3d 47e7 b33c 9fbe b13d
00000010: e38c f23d 837a 783e 0bfb 403e 9679 803e
00000020: bd47 293e a1e0 db3c 800e e13d 5888 853d
00000030: 1e47 303e 4b97 463e b960 c33c 4845 803e
00000040: 1451 a33c 3a05 f23c 83f3 863e 06ef 6c3d
00000050: 066d 7d3d cc40 883e fa9d 743d 1248 543e
00000060: e150 263d e500 8f3e d61a 763e ae58 a23d
00000070: c8fb 103e 7aca e73d 32d2 16bb 7147 993d
00000080: e504 c73d b3b2 9f3c 420f 993c 80df 483e
00000090: 5979 283e b4b0 4f3e e959 113e dd00 bbbb
000000a0: 8493 a43d a0af 073e b773 163e 923e 2dbd
000000b0: 829d 473e 1778 ff3d d748 7d3e 90d6 403d
000000c0: 967c 0c3e 11df a43d c1e7 8c3d 9044 6d3e
000000d0: cb26 0bbc b8f3 433e 8177 6b3e eb63 eb3c
000000e0: 3ce4 a6bd 77ec 8a3e 5112 0ebc 8d0c be3d
000000f0: a61a 3f3d 9ec1 743d adb0 b73d f4d8 2f3e
00000100: b777 163e 28d6 a53d 07cc 163e c581 9639
00000110: fb1b 113e 884f e1bc 3e4e 1b3e 5bd2 4c3d
00000120: 81a2 2a3e 37a1 333e 4199 263e 5fed 333e
00000130: a9da fa3d 10f1 f43d dd8b 9b3d c8b8 4a3e
00000140: 432d 523d 10a5 cf3d b4b8 0c3e e50d 5c3e
00000150: ad3f f33d 150d 5b3d 15c2 9b3e 7b7c 0ebc
00000160: cfef 743d 4b25 e23c a178 373a ca15 bbbd
00000170: a974 253e 0068 c73d dd29 323e c6e3 7e3a
00000180: ad6e de3d aee1 b23c 2868 7f3e c9fe 2c3d
00000190: 2d25 d13c 72fe 483e e7f5 df3d cb95 fd3d
000001a0: 8bd5 e53d e3f8 143e f236 503d 7131 0abb
000001b0: f52b 5d3e a40f 213a dd75 bb3d 7e96 033e
000001c0: c782 bd3d 1ee2 193e 642b 863e c54a 543e
000001d0: 852f 363e 18a3 503d 3618 353d 2867 603d
000001e0: 6a81 153e 83c4 dd3d ceff 173e 1376 a73c
000001f0: f31c 053e d2d7 383e e1e2 213e a408 3e3e
00000200: 74eb 053e 41f8 a23d e7c1 fd3d 3a09 2c3e
00000210: e8d6 c43d 5d99 013d 0c59 d63d e4df 193e
00000220: 49db f5bd e9d8 163e 3ba2 e33d 24dc f73d
00000230: 463b 3b3e b347 803e 8221 e83d 9ac6 5b3e
00000240: 79ad 273e a445 433e 3f7f 153e b63e 6e3d
00000250: 4301 313e 09c2 c53d 8487 0a3e a346 03bb
00000260: 5dd8 f13d 6112 ca3d 415c 0f3e bb84 5e3e
00000270: 97b3 7d3d 2636 873e b50f 4f3d 563e 403d
00000280: 0ef5 4a3d 6440 4f3d a44e 053d 6df7 393e
00000290: 0308 a13d ac42 0d3e e3b4 ab3d cc6e fd3d
000002a0: 7060 543d aff1 4e3e 6828 133e 6e1a 643e
000002b0: 3072 d03d da67 383e f182 373e 7e10 153e
000002c0: e860 cf3c c0eb 4a3e 96d5 003e d4ec 323e
000002d0: 909e 1e3e f5bc 263e 70aa 373e 1d25 053e
000002e0: a5ec 9bbc 507b 163e 599f 1d3e aa94 033d
000002f0: b06a 613d 80b0 f93d 5611 253e e76c f73d
00000300: 0f0e e33c 626f 613e b68a 87bd 0829 03bc
00000310: 7e1e e83d 8d80 f73b 22ab 1b3e d621 0c3d
00000320: 8dea 223d 632b 47bd 6f56 b03d 4fde 023e
00000330: 6a23 2c3e 4a06 ff3d 8da1 4c3e 7fba dd3d
00000340: 1a79 673e 24fa c53d f62c 593e 6765 f63d
00000350: 2935 3d3d 98dd 033e a8fd 903d 4c84 c13c
00000360: 1701 86bd f052 2e3d a80b 7b3e 5efa 0f3e
00000370: beea b43c 18a3 783e 689b 0a3e 4a01 7b3d
00000380: 5bc4 2b3e a74c 133e 23a4 093e 5267 523e
00000390: 37bb 6b3e 0bd7 663e cc1a 8c3b 1d28 0c3e
000003a0: 7a57 fc3d 82cd a63d 346c 7c3e 5d37 55bd
000003b0: 3646 e63d f6c8 423e 2281 ca3d 5606 873e
000003c0: 2c1c 573e a2f4 283d 65f9 5a3e b9a0 fa3d
000003d0: 603a 733e c7a2 743e 4295 f33d 647b 9d3d
000003e0: ffe7 6b3e 70b3 c0bd 9e28 d53d 0e93 2f3e
000003f0: e8a5 5b3d 75b7 ba3d ec2a ba3c d741 9e3d

network.7.weight f4 [128, 256]
0.07335631 -0.009851172 -0.008321127 0.15408133 0.09509351 -0.06475177 0.044234067 0.07022716
0.09520849 0.115976624 -0.028422797 0.10656579 0.081502326 -0.09618825 0.17150345 -0.05493454
0.015085663 0.15034956 -0.058296133 0.06607066 -0.0077857925 -0.05145753 0.14112423 -0.018220317
0.0511659 0.021916779 -0.017603232 -0.0053007845 -0.009978071 0.015142663 -0.040953882 0.12473398
0.0033369095 0.012697168 0.13156745 -0.013334478 0.15227889 0.014384705 0.07630998 0.030341988
0.11968364 -0.016916752 -0.048624035 0.02286457 -0.020049863 -5.26426e-05 -0.0020690213 0.029816246
-0.038903736 0.08099443 0.0651399 -0.048097428 0.013623122 -0.060707208 0.119070515 0.06396805
0.03806543 0.07157603 0.06293324 0.039503336 -0.007602461 0.089549206 0.05170589 -0.09564951
0.0031552606 0.06347447 0.056021526 -0.022442365 0.10471481 -0.007851895 0.006779543 0.16440074
0.15448767 0.16568086 0.1063629 0.058301784 0.030208487 0.14056012 0.16673708 0.05641532
0.11795736 0.07980491 0.03048313 0.061746836 0.08733955 -0.0012745752 0.11302974 0.05841525
0.13319895 0.09634477 0.14326999 0.024218531 0.10429112 -0.051744193 0.098526224 0.05790393
-0.015078538 0.08916168 0.03677913 0.04154039 0.023893358 -0.08545347 -0.036191527 -0.08511638
0.059030812 -0.0037416518 0.15227567 0.12154408 0.030361615 0.16770576 -0.048487313 0.10213843
-0.017674921 -0.018625546 0.063533716 0.102735385 0.14442666 0.029842675 -0.021323385 0.099870205
0.02868782 0.10338872 0.11788178 0.13555805 0.1523881 0.14931881 0.10883833 -0.03223657
0.024025539 0.14486654 0.112383604 0.0949765 -0.09156211 0.123930626 0.05336197 0.12817399
-0.015614207 0.08848856 -0.045865845 -0.06346344 0.12352826 0.030106766 -0.028317796 -0.004038367
-0.010341688 -0.06539689 0.13160583 0.072620645 0.116212904 0.064095914 0.08037505 0.013519866
0.06612563 0.14936168 -0.05954345 0.0416379 0.09058476 -0.035798144 0.1671787 0.054499812
0.1583811 0.036391236 0.047174692 0.038164906 0.143102 0.031273205 0.08005132 -0.007029413
0.096553646 0.017339336 0.046755675 -0.014426065 0.011984401 0.014555387 -0.014699072 0.091213875
0.117449604 -0.07922639 0.06019655 0.010053403 0.08024766 0.020221643 -0.030395456 0.027335007
0.16895266 0.02790363 -0.0015625436 0.087519705 -0.037334148 -0.024340289 0.07436094 0.08871759
0.16051476 0.0033825594 -0.0663195 -0.06243109 0.086013034 0.05884602 0.14139742 -0.016786104
0.117398955 -0.035651177 0.102774605 -0.027480729 -0.064654484 0.018344302 -0.050907243 -0.01830318
-0.009980011 0.14738761 0.012269227 0.0014302159 0.1471568 -0.046225805 0.1012979 0.041188035
-0.020818312 0.11449589 -0.0910567 -0.062509656 0.049340468 -0.0974361 0.0809848 -0.09495276
0.039424054 -0.060691226 -0.038764942 0.0056217657 0.023891497 0.08649986 0.14386384 0.047972683
0.022725917 0.16480449 0.1262362 0.02290068 -0.015775273 0.05413382 -0.0016517979 0.078262314
-0.0022132844 0.06378983 0.017555816 0.120967306 0.11255795 -0.088124305 -0.0059400797 0.04573833
0.025616562 0.051069416 -0.0039009645 0.11621334 0.09862286 -0.02253283 0.11023049 0.09592833
00000000: d53b 963d cf66 21bc 5655 08bc 7fc7 1d3e
00000010: 63c0 c23d 939c 84bd c82e 353d 42d3 8f3d
00000020: abfc c23d 2785 ed3d edd6 e8bc 2a3f da3d
00000030: b1ea a63d 58fe c4bd 9a9e 2f3e 0a03 61bd
00000040: db29 773c 3cf5 193e edc7 6ebd 0e50 873d
00000050: f61f ffbb 22c5 52bd df82 103e c642 95bc
00000060: 5693 513d d18a b33c a734 90bc 34b2 adbb
00000070: 107b 23bc ef18 783c 42bf 27bd 8774 ff3d
00000080: 0db0 5a3b c807 503c 9eb9 063e db78 5abc
00000090: ffee 1b3e d3ad 6b3c 6848 9c3d c38f f83c
000000a0: b21c f53d 0095 8abc ff29 47bd 7b4e bb3c
000000b0: 9c3f a4bc 90cc 5cb8 6b98 07bb 3341 f43c
000000c0: 8659 1fbd 68e0 a53d 1168 853d cf01 45bd
000000d0: 8433 5f3c 1fa8 78bd 3edb f33d ae01 833d
000000e0: 7fea 1b3d 7496 923d 24e3 803d 40ce 213d
000000f0: 111e f9bb 9365 b73d 8ec9 533d e4e3 c3bd
00000100: 7dc8 4e3b e7fe 813d d476 653d 0dd9 b7bc
00000110: b874 d63d 3ca5 00bc ee26 de3b ab58 283e
00000120: 0432 1e3e 3ea8 293e cbd4 d93d dacd 6e3d
00000130: ca77 f73c feee 0f3e 20bd 2a3e c013 673d
00000140: a193 f13d c270 a33d c2b7 f93c 40ea 7c3d
00000150: 14df b23d a60f a7ba 237c e73d d444 6f3d
00000160: 4e65 083e 6850 c53d 5eb5 123e f165 c63c
00000170: 9596 d53d b8f1 53bd 1ec8 c93d ac2c 6d3d
00000180: f90b 77bc 669a b63d b7a5 163d 4226 2a3d
00000190: 01bc c33c 3b02 afbd 913d 14bd 7f51 aebd
000001a0: 4bca 713d 8036 75bb 27ee 1b3e 1aec f83d
000001b0: ecb8 f83c 0fbb 2b3e a29a 46bd f42d d13d
000001c0: ffca 90bc 9a94 98bc f71d 823d ee66 d23d
000001d0: 95e4 133e a078 f43c 61ae aebc c088 cc3d
000001e0: b802 eb3c 77bd d33d 016c f13d bbcf 0a3e
000001f0: a00b 1c3e 08e7 183e a1e6 de3d 7e0a 04bd
00000200: 35d1 c43c e557 143e 6029 e63d 0a83 c23d
00000210: ea84 bbbd 57cf fd3d 1592 5a3d 0b40 033e
00000220: bbd2 7fbc 7d39 b53d d3dd 3bbd 1ff9 81bd
00000230: 62fc fc3d 77a2 f63c b9fa e7bc 4754 84bb
00000240: 2f70 29bc ceee 85bd aec3 063e 22ba 943d
00000250: 0801 ee3d b844 833d ad9b a43d 6e82 5d3c
00000260: e06c 873d 45f2 183e d5e3 73bd 818c 2a3d
00000270: 8184 b93d 13a1 12bd e530 2b3e 323b 5f3d
00000280: a82e 223e fa0e 153d 403a 413d ce52 1c3d
00000290: 5589 123e 5518 003d f2f1 a33d fd56 e6bb
000002a0: ebbd c53d 390b 8e3c e182 3f3d 4d5b 6cbc
000002b0: 395a 443c b879 6e3c 60d4 70bc 57ce ba3d
000002c0: 6b89 f03d 7241 a2bd a890 763d 07b7 243c
000002d0: e358 a43d dca7 a53c e4ff f8bc aaed df3c
000002e0: ed01 2d3e 2796 e43c 43ce ccba 883d b33d
000002f0: b1eb 18bd 4965 c7bc 8c4a 983d 91b1 b53d
00000300: fb5d 243e eead 5d3b 85d2 87bd beb7 7fbd
00000310: 9a27 b03d 8608 713d 7cca 103e 0383 89bc
00000320: dd6e f03d f806 12bd 7e7b d23d 441f e1bc
00000330: 9269 84bd ca46 963c 1d84 50bd 8df0 95bc
00000340: 3383 23bc c7ec 163e de04 493c 1576 bb3a
00000350: 46b0 163e 4557 3dbd 4675 cf3d c9b4 283d
00000360: 2a8b aabc d27c ea3d ef7b babd 1005 80bd
00000370: 3b19 4a3d 948c c7bd 5cdb a53d 9876 c2bd
00000380: 1e7b 213d 5d97 78bd fdc7 1ebd ca36 b83b
00000390: 1ab8 c33c d726 b13d 0b51 133e 017f 443d
000003a0: b42b ba3c 82c2 283e 1044 013e 359a bb3c
000003b0: 253b 81bc 6dbb 5d3d 2481 d8ba fe47 a03d
000003c0: c00c 11bb 3ea4 823d 37d1 8f3c b5bd f73d
000003d0: c884 e63d 847a b4bd 00a5 c2bb 1d58 3b3d
000003e0: d3d9 d13c 2a2e 513d 53a7 7fbb 4201 ee3d
000003f0: c8fa c93d c596 b8bc 86c0 e13d 1376 c43d

network.7.bias f4 [128]
0.04248478 0.099241465 0.15125911 0.025474299 -0.017967178 0.02692235 0.018476749 -0.060341246
0.19030029 0.076829396 0.054432757 -0.021120124 0.02248414 0.12514706 0.039678633 0.20096083
0.05533902 0.1212987 0.087609634 0.031316042 0.17269184 0.0439023 0.04114916 0.02958978
0.035312086 0.052667648 0.10283957 0.04838148 0.07793596 0.07592585 0.050784152 -0.021838563
0.17856391 0.055924777 0.034268975 0.23220666 0.1380857 0.1749541 -0.034653008 0.02861986
0.19339518 0.1954899 0.05317723 0.019168084 0.095719665 0.11103998 -0.04339304 -0.06165337
0.0844084 0.0143143535 0.09733487 0.07786052 0.2183115 0.05710057 0.04502278 0.17449583
0.20368393 0.047063097 0.1281675 0.19848558 -0.0098122815 0.025161332 0.16376394 0.21697055
0.03299427 0.047921617 0.08624178 0.09955153 -0.064254336 0.1403042 0.07461346 0.09694826
-0.024323136 0.12533832 0.14902407 0.053075746 0.12586294 0.049367934 0.23475881 0.18086588
0.074621394 0.07000721 0.20124473 0.20663998 0.103763156 0.115049995 0.2386997 -0.03608156
-0.0691895 0.05337989 0.0037512665 0.051893722 0.22427124 -0.03199532 0.17162904 0.012501103
0.02080245 0.17670593 0.19735505 0.028672136 0.16581224 -0.023194045 0.22941445 0.045724057
0.13837646 0.13873406 0.13014193 0.049021818 0.139013 0.025788037 -0.06799093 0.10468713
0.08295726 0.047479108 0.18287954 0.2175532 0.047938175 0.14270633 -0.017174926 0.23654869
0.13961916 0.061312575 0.16776213 0.034531884 0.015638804 0.10224751 0.14109865 0.05639249
00000000: 8504 2e3d 1c3f cb3d abe3 1a3e 7aaf d03c
00000010: e72f 93bc 438c dc3c 8d5c 973c 6228 77bd
00000020: 14de 423e bb58 9d3d e2f4 5e3d 1c04 adbc
00000030: a930 b83c 8d26 003e 1086 223d adc8 4d3e
00000040: 2bab 623d 746b f83d ae6c b33d 4045 003d
00000050: 21d6 303e e6d2 333d 068c 283d 4466 f23c
00000060: 68a3 103d 08ba 573d 8d9d d23d a92b 463d
00000070: e39c 9f3d 037f 9b3d 0b03 503d c9e6 b2bc
00000080: 75d9 363e 6111 653d a05d 0c3d 95c7 6d3e
00000090: 5666 0d3e 2b27 333e 50f0 0dbd 3274 ea3c
000000a0: 6309 463e 812e 483e 5ed0 593d 6306 9d3c
000000b0: ac08 c43d ee68 e33d e6bc 31bd 3e88 7cbd
000000c0: 50de ac3d c086 6a3c 8157 c73d 5675 9f3d
000000d0: 0d8d 5f3e 4ae2 693d ce69 383d 09af 323e
000000e0: 8592 503e 3cc5 403d 573e 033e ce3f 4b3e
000000f0: b1c3 20bc 231f ce3c bcb1 273e 872d 5e3e
00000100: 0025 073d 7549 443d 889f b03d ace1 cb3d
00000110: c797 83bd e7ab 0f3e f1ce 983d cf8c c63d
00000120: 5041 c7bc b058 003e c499 183e f465 593d
00000130: 37e2 003e 0836 4a3d 9d64 703e e834 393e
00000140: 1ad3 983d f15f 8f3d 1913 4e3e 6e99 533e
00000150: c781 d43d 559f eb3d b26d 743e 42ca 13bd
00000160: 39b3 8dbd dfa4 5a3d cfd7 753b 838e 543d
00000170: 5ca7 653e 860d 03bd 86bf 2f3e 6dd1 4c3c
00000180: e669 aa3c 66f2 343e 7117 4a3e d4e1 ea3c
00000190: afca 293e 7001 bebc 9feb 6a3e 2649 3b3d
000001a0: 8fb2 0d3e 4d10 0e3e ed43 053e 1acb 483d
000001b0: 6d59 0e3e 6f41 d33c d43e 8bbd 3566 d63d
000001c0: 7fe5 a93d 7479 423d c644 3b3e 44c6 5e3e
000001d0: d25a 443d 9c21 123e 6eb2 8cbc d239 723e
000001e0: 53f8 0e3e e522 7b3d d6c9 2b3e 4e71 0d3d
000001f0: f31c 803c 2467 d13d 2a7c 103e d0fb 663d

network.9.weight f4 [2, 128]
0.06637235 -0.0033456278 -0.04507646 0.032103587 0.06159872 0.05196306 0.03137927 -0.012663253
0.054782372 0.0021569605 -0.049165454 0.06429784 -0.011159477 0.058240186 0.07716069 0.044275817
0.034984156 0.06740445 0.039695606 0.04510812 -0.055848215 -0.0112464 -0.05451846 -0.03919655
-0.06257453 -0.031079883 -0.012005162 0.04373733 -0.01275645 0.0019703396 -0.05122047 -0.016940719
-0.014369827 0.051896237 -0.08415194 -0.055533394 -0.06763497 -0.04748269 -0.055315994 -0.011933543
-0.035106182 0.044442985 0.018030733 -0.095197536 -0.030658029 -0.058364738 -0.0893141 -0.01629525
-0.0128758615 0.05136348 -0.050368026 -0.09179466 0.005723354 -0.011558895 -0.054310534 0.03746168
-0.0714256 0.027648592 0.033562046 -0.04457013 -0.0334744 0.05391271 0.05023515 0.07804954
-0.011269555 -0.09460264 -0.046961118 0.020184148 0.08019201 -0.049311277 -0.047536023 0.0042687603
0.073944986 -0.01289016 0.082684204 -0.03840506 -0.07364892 0.016531426 0.090909585 -0.07614736
0.03428 0.0541407 0.011800968 0.01816193 -0.045125376 -0.06283241 0.07603804 0.063096285
-0.009005118 0.00025661214 -0.025067752 -0.004258825 0.07983636 -0.075762205 0.016832374 -0.075139366
-0.012738366 0.00664124 -0.0004416026 -0.06418632 0.029256133 -0.013214034 -0.07471806 0.06353494
-0.037949927 0.02962139 -0.016913377 -0.044082858 0.00030598065 0.007177429 -0.029297816 0.058951743
-0.024897551 0.020012934 -0.06410078 0.048227698 -0.011811523 -0.061050918 0.024620559 -0.017343165
-0.007249131 0.015961818 -0.027098464 0.070418395 -0.038722124 -0.070009045 -0.018228842 0.010062476
0.11845298 0.141404 -0.2158219 0.080050096 -0.008663494 0.16312785 -0.0088556195 -0.06299654
-0.18192194 0.146103 0.10225505 -0.050469376 -0.0026466306 0.12662184 0.04324327 -0.21486408
0.16299787 0.15218212 0.17615853 0.11375043 -0.2219858 -0.04707657 0.18064193 -0.014384319
-0.037372973 -0.00634189 0.13250242 0.16013792 0.16023655 0.15160358 -0.0010434653 0.06025827
-0.1665381 0.18958548 -0.07434043 -0.14554892 0.14948738 -0.18544911 -0.033833098 0.07459043
-0.18601835 -0.1981346 0.14590721 0.040139537 0.11365211 0.18082374 -0.004719947 -0.07753961
0.19261552 0.014971298 0.16520068 0.13154222 -0.19151808 0.1420014 0.086998835 -0.16919412
-0.20783606 0.113009155 0.1247046 -0.18788806 0.0021549077 0.14051676 -0.19824773 -0.16118169
0.1508958 0.014221771 0.11457818 0.120419465 -0.05882328 0.11954158 0.13412252 0.1970918
-0.028022338 -0.18200916 -0.1765728 -0.085743465 0.12631688 -0.0017771535 -0.19617763 -0.17580777
0.1439625 0.13921744 -0.1596746 -0.18424152 -0.20973198 0.1752201 -0.22250815 -0.060391955
0.0041529643 0.17832643 -0.015637482 0.14831676 -0.16716288 0.031064587 -0.22070819 0.03919327
0.002210648 -0.19122829 -0.14269106 0.055871073 -0.16261156 -0.009332312 -0.2019756 0.12039436
-0.1643401 -0.19512665 0.17220503 -0.00010961649 0.13370353 0.18128286 -0.050238814 0.17634748
0.15303926 0.1871172 -0.19601998 -0.1852977 0.15545742 -0.21698539 0.040415194 -0.203948
0.15742578 0.097614996 -0.13967775 -0.03474057 -0.07597592 0.12771226 -0.21452284 0.06789888
00000000: 3aee 873d 5242 5bbb 18a2 38bd 0d7f 033d
00000010: f04e 7c3d 38d7 543d 8d87 003d 8879 4fbc
00000020: 7b63 603d cb5b 0d3b b761 49bd 96ae 833d
00000030: 3dd6 36bc 438d 6e3d 6d06 9e3d 8f5a 353d
00000040: 8c4b 0f3d 580b 8a3d dc97 223d 4bc3 383d
00000050: 19c1 64bd d242 38bc c04e 5fbd 908c 20bd
00000060: 1327 80bd 3d9b febc 4db1 44bc ea25 333d
00000070: 6e00 51bc d020 013b 8ecc 51bd 43c7 8abc
00000080: 6c6f 6bbc 2691 543d da57 acbd fc76 63bd
00000090: 3484 8abd 367d 42bd 0693 62bd e884 43bc
000000a0: 80cb 0fbd d909 363d 30b5 933c edf6 c2bd
000000b0: 8c26 fbbc dd0f 6fbd 50ea b6bd 9e7d 85bc
000000c0: 47f5 52bc 8362 523d b44e 4ebd d7fe bbbd
000000d0: f98a bb3b 8561 3dbc b974 5ebd 6b71 193d
000000e0: 9647 92bd 4d7f e23c 5b78 093d 2b8f 36bd
000000f0: 741c 09bd 93d3 5c3d 5fc3 4d3d 70d8 9f3d
00000100: f1a3 38bc 07bf c1bd 4d5a 40bd 3a59 a53c
00000110: b53b a43d 9ffa 49bd 22b5 42bd f5e0 8b3b
00000120: 7870 973d 4031 53bc 5656 a93d a04e 1dbd
00000130: 3fd5 96bd ea6c 873c ce2e ba3d 26f3 9bbd
00000140: 2f69 0c3d a3c2 5d3d d958 413c 54c8 943c
00000150: 63d5 38bd 47ae 80bd d5b9 9b3d a038 813d
00000160: 348a 13bc e689 8639 e35a cdbc 9d8d 8bbb
00000170: 3f81 a33d 3729 9bbd 0ce4 893c abe2 99bd
00000180: 94b4 50bc c29e d93b e686 e7b9 1e74 83bd
00000190: 8faa ef3c ad7f 58bc c805 99bd 9b1e 823d
000001a0: 6271 1bbd 8fa8 f23c ec8d 8abc 3a90 34bd
000001b0: 076c a039 a330 eb3b f901 f0bc 6277 713d
000001c0: f3f5 cbbc 2af2 a33c 4547 83bd 688a 453d
000001d0: 1e85 41bc 8710 7abd 0eb1 c93c 4113 8ebc
000001e0: 1e8a edbb 5cc2 823c 99fd ddbc 8537 903d
000001f0: 179b 1ebd e760 8fbd a754 95bc 15dd 243c
00000200: 7a97 f23d 36cc 103e 6b00 5dbe 4ef1 a33d
00000210: 54f1 0dbc fd0a 273e 2917 11bc 5404 81bd
00000220: bf49 3abe 069c 153e 186b d13d fab8 4ebd
00000230: 1873 2dbb 28a9 013e db1f 313d 5405 5cbe
00000240: eae8 263e a1d5 1b3e e762 343e fcf5 e83d
00000250: 3f50 63be 5dd3 40bd 33fa 383e 35ac 6bbc
00000260: 6714 19bd a1cf cfbb b7ae 073e 32fb 233e
00000270: 0d15 243e f83d 1b3e e3c4 88ba 60d1 763d
00000280: f788 2abe b222 423e cc3f 98bd c70a 15be
00000290: 3813 193e 5fe6 3dbe 9394 0abd dec2 983d
000002a0: 987b 3ebe cce3 4abe b368 153e 5b69 243d
000002b0: 70c2 e83d dc29 393e c9a9 9abb 16cd 9ebd
000002c0: 013d 453e 2d4a 753c 5e2a 293e 01b3 063e
000002d0: 511d 44be d168 113e 722c b23d 3941 2dbe
000002e0: fad2 54be 5871 e73d 2065 ff3d ba65 40be
000002f0: 5a39 0d3b a0e3 0f3e 7401 4bbe d00c 25be
00000300: 6e84 1a3e 6e02 693c f7a7 ea3d 7b9e f63d
00000310: aef0 70bd 37d2 f43d 6a57 093e 6fd2 493e
00000320: 1a8f e5bc 9c60 3abe 80cf 34be 459a afbd
00000330: 3659 013e 60ef e8ba cae2 48be f406 34be
00000340: e86a 133e 048f 0e3e bd81 23be cfa9 3cbe
00000350: fbc3 56be e66c 333e 2dd9 63be 8e5d 77bd
00000360: 9715 883b 349b 363e 2d1a 80bc 59e0 173e
00000370: bf2c 2bbe 297b fe3c 5401 62be 1f89 203d
00000380: 85e0 103b 59d1 43be 9b1d 12be 11d9 643d
00000390: a583 26be 8ee6 18bc b1d2 4ebe 5191 f63d
000003a0: c548 28be 48cf 47be 8456 303e e8e1 e5b8
000003b0: 94e9 083e 37a2 393e 37c7 4dbd 6f94 343e
000003c0: 53b6 1c3e a79b 3f3e 76b9 48be aebe 3dbe
000003d0: 3b30 1f3e 6b31 5ebe 678a 253d bfd7 50be
000003e0: 3934 213e 5fea c73d af07 0fbe 214c 0ebd
000003f0: 4399 9bbd 01c7 023e e0ab 5bbe 910e 8b3d

network.9.bias f4 [2]
0.089532085 -0.14323452
00000000: 995c b73d 12ac 12be
